checkpoint_critic.pth (torch_old, 542674 bytes, 5 tensors)

fcs1.weight f4 [400, 33]
0	0xbdbadb88	-0.091239035
1	0x3cfabc2c	0.030607305
2	0x3e4a7d9f	0.19774483
3	0xbe50cf2c	-0.2039153
4	0xbf04d725	-0.51890785
5	0x3db80a1a	0.08986302
6	0xbd0078bd	-0.031365145
7	0xbe8965fa	-0.26835614
8	0xbeb475a5	-0.35246006
9	0xbe5b1356	-0.21394095
10	0xbea3bcf3	-0.31980094
11	0x3ef76fd7	0.48327515
12	0x3a5cb2d5	0.0008418982
13	0xbdf8b4fd	-0.12143896
14	0x3f10e2d6	0.56596124
15	0x3a83d261	0.0010057205
16	0xbe3acc55	-0.18242009
17	0x3ed182bd	0.40920058
18	0x3d918e6c	0.07107243
19	0x3dcb73dc	0.09934208
20	0x3d6dba0c	0.058038756
21	0x3e42ceb4	0.19024163
22	0xbdf7f4c4	-0.12107232
23	0xbe486cd4	-0.19572765
24	0x3e810ca2	0.2520495
25	0x3e3939ff	0.1808853
26	0xbd0d9192	-0.034562655
27	0x3f7fae86	0.99875677
28	0xbda58bc3	-0.08083298
29	0xbd035e58	-0.032072395
30	0xbf83adf8	-1.0287466
31	0x3ca3e0c2	0.020004634
32	0x3d8cd52c	0.06876597
33	0xbdae57ba	-0.08512826
34	0x3eb0edb8	0.34556365
35	0x3e06761c	0.13130993
36	0xbef4d4b7	-0.4781854
37	0xbecb00a3	-0.39648923
38	0xbf06061c	-0.5235307
39	0x3f437d51	0.7636309
40	0x3d12e46e	0.03586238
41	0x3e866d33	0.26255187
42	0x3eae28f6	0.34015626
43	0xbdc91673	-0.09818735
44	0x3e7e4dbe	0.24834344
45	0xbe1e1756	-0.1543859
46	0xbd0874dd	-0.033314575
47	0x3f17f691	0.59360605
48	0x3c55029e	0.013001112
49	0xbf1609f3	-0.5860893
50	0xbebdc686	-0.37065524
51	0x3f03c5c7	0.5147366
52	0xbd4c7fbe	-0.049926512
53	0x3e5a944b	0.21345632
54	0xbd975cb7	-0.07390731
55	0x3e539d71	0.20665528
56	0xbe7155e0	-0.23567915
57	0x3b97ad90	0.0046288446
58	0x3d8becf8	0.068323076
59	0x3ddb8ebe	0.10720585
60	0x3f94eb9a	1.16344
61	0xbd43795a	-0.04772315
62	0x3d010431	0.031498138
63	0xbf89c3ef	-1.0762919
64	0xbd114382	-0.03546477
65	0x3f2972d8	0.6619086
66	0x3e9f6ebc	0.3113917
67	0x3ed8c404	0.42337048
68	0xbe085270	-0.13312697
69	0xbe57d63c	-0.21077818
70	0x3eca1894	0.39471877
71	0xbe958796	-0.29205006
72	0x3f0d4e87	0.5519795
73	0xbe79943a	-0.2437295
74	0xbe5662e1	-0.20936157
75	0x3ebfbcb6	0.37448663
76	0x3e2a719e	0.16644904
77	0x3d85ed00	0.06539345
78	0x3d703cfc	0.05865191
79	0xbe43563a	-0.19075862
80	0x3c81b1d9	0.015831875
81	0x3d94dbdb	0.072684966
82	0x3ee487a7	0.44634745
83	0x3e7d777e	0.24752614
84	0xbee4e389	-0.44704846
85	0xbe9a4b9c	-0.3013581
86	0x3d3e2a9a	0.046427347
87	0xbea81313	-0.32827052
88	0x3c5609dd	0.013063875
89	0xbd63e73d	-0.055640448
90	0x3c6117ab	0.013738553
91	0x3eb0e475	0.345493
92	0x3dafa890	0.085770726
93	0x3f331240	0.6994972
94	0x3cb31504	0.021860607
95	0xbc420b14	-0.011843462
96	0xbf398fe8	-0.7248521
97	0xbcb454ba	-0.022013057
98	0xbf062925	-0.5240653
99	0xbf1b9a37	-0.6078219
100	0x3f134bad	0.5753735
101	0xbaaa1e6c	-0.0012979037
102	0xbe98d91a	-0.29853135
103	0x3decb3a0	0.11557698
104	0x3c7dac07	0.015482909
105	0x3ef46cae	0.47739166
106	0xbae53757	-0.0017487806
107	0x3e9b2554	0.30301917
108	0x3e3a7d9d	0.1821198
109	0xbe321903	-0.17392354
110	0x3f33a868	0.7017884
111	0xbe13a9d9	-0.1442026
112	0x3d4b6bf5	0.049663503
113	0x3f08964d	0.5335434
114	0xba9cfcc9	-0.0011977191
115	0x3e8ff731	0.2811828
116	0x3ebc1fe2	0.36743075
117	0xbe96cf1e	-0.29454893
118	0xbef606e5	-0.48052135
119	0xbe0f5628	-0.1399771
120	0xbe0b8b67	-0.13627397
121	0xbe38dbc5	-0.18052585
122	0x3d940489	0.072274275
123	0x3e439478	0.19099605
124	0x3e1d7fc0	0.15380764
125	0x3de32b29	0.110922165
126	0x3f357bd4	0.7089207
127	0xbc134156	-0.008987745
128	0xbd0024fa	-0.031285264
129	0xbf427725	-0.7596305
130	0x3a884ba0	0.0010398515
131	0x3ecfd322	0.4059077
132	0x3dc57441	0.09641314
133	0x3e2c1fb9	0.16808976
134	0x3e506d6c	0.20354241
135	0xbef22d11	-0.47300008
136	0x3e831172	0.25599247
137	0xbf611f5a	-0.87938464
138	0xbeda58db	-0.42645916
139	0xbcd78b25	-0.026311466
140	0x3f4b971c	0.7952745
141	0x3cd67196	0.026177209
142	0x3e4b1b56	0.19834647
143	0xbe2e69e8	-0.17032588
144	0xbe4d3b7d	-0.20042224
145	0xbe9dc142	-0.30811507
146	0x3eaac7a5	0.33355442
147	0xbe9e43d0	-0.30911112
148	0xbf2ea466	-0.682196
149	0xbda86afa	-0.08223529
150	0x3eed1356	0.46303815
151	0xbd1c8f67	-0.038222697
152	0x3de96aab	0.113972984
153	0x3e650dda	0.22368565
154	0xbde7f988	-0.11326891
155	0x3d1b3b66	0.037898444
156	0x3e0be41a	0.13661233
157	0x3e8ab553	0.27091464
158	0x3de78d40	0.11306238
159	0x3f86682f	1.0500544
160	0x3ef68d1a	0.48154527
161	0xbc8924f4	-0.016741253
162	0xbf86339d	-1.0484501
163	0x3d2a2b9f	0.041545507
164	0x3eba4599	0.36381224
165	0xbc2a803e	-0.010406552
166	0x3eed458b	0.4634212
167	0xbcd2372e	-0.025661077
168	0xbe2cfd13	-0.16893415
169	0x3d2284c3	0.039677393
170	0x3d0f64be	0.035008185
171	0x3d406b67	0.046977427
172	0xbecb81e4	-0.39747536
173	0x3c951c80	0.018202066
174	0x3d9856b5	0.07438413
175	0x3ea75b0f	0.3268666
176	0x3ebbba9c	0.3666581
177	0x3e82113a	0.25403768
178	0x3d21484a	0.03937558
179	0x3ee91f55	0.45531717
180	0x3e685928	0.2269026
181	0xbdb1849d	-0.08667872
182	0x3de5573a	0.11198278
183	0x3e1919ab	0.14951198
184	0x3cd02f93	0.02541331
185	0x3ea670b9	0.32507876
186	0xbe11cf5d	-0.14239259
187	0x3e44fcf0	0.19237113
188	0xbe4e72c2	-0.20160964
189	0xbe8f5556	-0.27994794
190	0x3e85bc4d	0.26120225
191	0xbdbaa66f	-0.09113776
192	0x3f80349b	1.0016054
193	0xbd499294	-0.049212053
194	0xbd0a7a9d	-0.03380834
195	0xbf786159	-0.9702354
196	0x3ce4affa	0.027915943
197	0x3ea44f1d	0.3209161
198	0x3e0b73a1	0.13618328
199	0x3eb58b8f	0.35458037
200	0xbd7c3b84	-0.061580196
201	0xbd65e2a6	-0.056124352
202	0x3cedc793	0.029025828
203	0x3e51641f	0.2044835
204	0xbf0bbf1c	-0.54588485
205	0x3900b4bd	0.00012274362
206	0x3f3f606e	0.74756515
207	0xbcb20cab	-0.021734556
208	0xbea8ce98	-0.3297012
209	0x3da9e548	0.08295685
210	0xbd36c4b1	-0.044621173
211	0xbe8c2f8b	-0.27380022
212	0x3e23a744	0.15981776
213	0xbdfdf99b	-0.12401124
214	0x3e756823	0.23965506
215	0xbe6fc4dd	-0.23414941
216	0xbea08c37	-0.31356975
217	0xbcd47bce	-0.02593794
218	0x3e07aacd	0.13248749
219	0x3db7e25a	0.0897872
220	0x3ddd2169	0.10797388
221	0xbeb3eea1	-0.35142997
222	0x3ea695a6	0.32536048
223	0x3e285fc3	0.1644278
224	0x3d9fbd38	0.077997625
225	0x3f8c94bf	1.0982894
226	0x3e836338	0.25661635
227	0xbcb65c9a	-0.022260953
228	0xbf8ef97f	-1.116989
229	0xbc8b7394	-0.017022885
230	0xbaa8020b	-0.0012817992
231	0x3e1a5c3d	0.15074249
232	0xbdcf2042	-0.101135746
233	0xb9925912	-0.00027913653
234	0xbd8f520b	-0.0699807
235	0x3d5eddf3	0.054410886
236	0x3d345cc9	0.0440338
237	0x3ca6b4b7	0.020349843
238	0xbdc4b1fd	-0.09604261
239	0xbe38e7b5	-0.18057139
240	0x3d13ad23	0.036053788
241	0x3d5bb09d	0.05363523
242	0x3dc2d39c	0.095130175
243	0xbcb3d6b6	-0.021952968
244	0xbebbb459	-0.36661032
245	0x3e6a6e28	0.22893584
246	0x3e0f4160	0.13989782
247	0xbe482fdd	-0.19549508
248	0xbda308ee	-0.079606876
249	0x3db1eea7	0.086880974
250	0xbd2c2ac8	-0.042032987
251	0x3ba576f7	0.005049582
252	0x3ee4a33d	0.4465579
253	0xbdae7e4c	-0.08520183
254	0xbd0dc095	-0.03460749
255	0xbccdc338	-0.025117502

fcs1.bias f4 [400]
0	0xbf5d1f89	-0.86376244
1	0xbf7de938	-0.9918399
2	0xbf16424e	-0.5869492
3	0xbf24f50a	-0.644364
4	0xbf77aea8	-0.9675088
5	0xbf5128e7	-0.8170304
6	0xbf7a5649	-0.9778791
7	0xbf2d0581	-0.67586523
8	0xbf103c21	-0.5634175
9	0xbf869eda	-1.0517228
10	0xbea85c1e	-0.3288278
11	0xbe76a59e	-0.24086615
12	0xbf95644b	-1.1671232
13	0xbd362bee	-0.04447549
14	0x3ef5051b	0.47855458
15	0xbcd7c831	-0.026340576
16	0xbf80e89b	-1.0070986
17	0xbf62a615	-0.8853467
18	0xbf540122	-0.8281423
19	0xbf33ddb9	-0.70260197
20	0xbf8d8e64	-1.1059079
21	0xbf72a5a6	-0.9478401
22	0x3e19502c	0.1497199
23	0xbf4a34ea	-0.7898699
24	0xbf9c9037	-1.2231511
25	0xbf5371b0	-0.8259535
26	0xbf478cea	-0.7794939
27	0xbf9aa1db	-1.2080644
28	0xbeb572c9	-0.35439137
29	0xbef83767	-0.4847977
30	0xbf2fb164	-0.6863005
31	0xbf0efe91	-0.5585719
32	0xbec3fc31	-0.38278344
33	0xbf2ce2c5	-0.6753352
34	0xbf3d8bfb	-0.7404172
35	0xbf4f88ba	-0.81068003
36	0xbf7ff558	-0.9998374
37	0xbf7e9735	-0.99449474
38	0xbefefa1a	-0.49800187
39	0xbf0bb940	-0.54579544
40	0xbf74097a	-0.9532696
41	0xbfaf571b	-1.3698457
42	0xbf795bb8	-0.97405577
43	0xbf8a5232	-1.0806334
44	0xbf7c44f6	-0.98542726
45	0xbf72ea4f	-0.94888777
46	0xbf4978f1	-0.78700167
47	0xbed70cf4	-0.4200207
48	0xbf0fbc07	-0.5614628
49	0xbf889348	-1.0669947
50	0xbf69f5cb	-0.91390675
51	0xbf824965	-1.0178648
52	0xbf09808b	-0.53711766
53	0xbf8f0e80	-1.11763
54	0xbf8b17f5	-1.0866686
55	0xbf6d648a	-0.92731535
56	0xbe8d2d04	-0.27573407
57	0xbf9bd801	-1.2175294
58	0xbf121576	-0.57063997
59	0xbf98a781	-1.1926118
60	0xbf8bcb01	-1.0921327
61	0xbf6ccca9	-0.92499787
62	0xbf96b6ac	-1.1774497
63	0xbf3e9387	-0.7444386
64	0xbf7548e3	-0.9581434
65	0xbf32f3b1	-0.69903094
66	0xbf398331	-0.7246581
67	0xbfa2fada	-1.2732804
68	0xbf3e57e5	-0.74352866
69	0xbe9289ca	-0.2862075
70	0xbf867511	-1.0504476
71	0xbf80d136	-1.0063846
72	0xbf6f587c	-0.9349439
73	0xbf6295c9	-0.88509804
74	0xbf08fb5d	-0.5350855
75	0xbfa7b00b	-1.3100599
76	0xbe943072	-0.2894321
77	0xbf87e8b9	-1.0617896
78	0xbee36ba7	-0.4441807
79	0xbf29f8a2	-0.6639501
80	0xbf60d8a6	-0.8783058
81	0xbf4947d3	-0.7862522
82	0xbf88bfd5	-1.0683542
83	0xbf4b26fb	-0.79356354
84	0xbf62293d	-0.88344175
85	0xbf9ef6f5	-1.2419115
86	0xbd6902d0	-0.056887448
87	0xbea1e894	-0.31622756
88	0xbf79d7fb	-0.97595185
89	0xbe466b4b	-0.19376867
90	0x3f0de6d2	0.5543033
91	0xbf087a5d	-0.5331171
92	0xbf07a7d6	-0.5299047
93	0xbf2f4335	-0.68461925
94	0xbf7991aa	-0.9748789
95	0xbf4b56d6	-0.79429376
96	0xbf724e5e	-0.9465083
97	0xbf33325a	-0.69998705
98	0x3da73fbf	0.081664555
99	0xbf5da683	-0.865822
100	0xbe853c9a	-0.26022798
101	0xbcb64f90	-0.022254735
102	0xbf6de919	-0.92933804
103	0xbf5bb96c	-0.85829806
104	0xbf766726	-0.9625114
105	0xbf5864b8	-0.84528685
106	0xbf41c1cd	-0.7568634
107	0xbf4c7a63	-0.7987425
108	0xbf93e120	-1.1553078
109	0x3ebf4839	0.3735979
110	0xbf2c6fa8	-0.67357874
111	0xbf55e440	-0.83551407
112	0xbf4b98ab	-0.7952983
113	0xbed9e96e	-0.42560905
114	0xbf787c02	-0.9706422
115	0xbf55c88d	-0.8350914
116	0xbf94025a	-1.1563218
117	0xbf1ef00a	-0.6208502
118	0x3efe36aa	0.4965108
119	0xbe956d00	-0.29184723
120	0x3d9de7d2	0.07710232
121	0xbe7eceaa	-0.24883524
122	0xbc106555	-0.008813222
123	0xbf39d4dc	-0.7259042
124	0xbf805b6b	-1.0027899
125	0xbf52e1d5	-0.8237584
126	0xbf27e56c	-0.65584445
127	0x3e958f1c	0.29210746
128	0xbf12b008	-0.5729985
129	0xbf84eae2	-1.038418
130	0xbe0b6169	-0.13611378
131	0xbf80b12a	-1.0054066
132	0xbf49b8e7	-0.78797764
133	0xbe8ae2d3	-0.27126178
134	0xbf6a363c	-0.91489005
135	0xbf0b211e	-0.5434741
136	0xbe5c9dab	-0.2154452
137	0xbf9e2690	-1.2355518
138	0xbf4752f3	-0.77860945
139	0xbf9b09b8	-1.2112341
140	0xbf8629e9	-1.048154
141	0xbf312938	-0.6920352
142	0xbf9fa7fa	-1.2473137
143	0xbf4085f9	-0.75204426
144	0xbf802c4b	-1.0013517
145	0xbee6a5d2	-0.45048386
146	0xbe9fc3ae	-0.3120398
147	0xbf4d451c	-0.8018358
148	0xbf565511	-0.8372355
149	0xbf2365fe	-0.638275
150	0xbfb9d0ac	-1.4516807
151	0xbf744122	-0.95411885
152	0xbf18a714	-0.5962994
153	0xbf538a74	-0.8263314
154	0xbef21620	-0.47282505
155	0xbdc21f87	-0.094786696
156	0xbf0e38ef	-0.55555624
157	0xbf0f1abf	-0.55900186
158	0xbf1b6914	-0.6070721
159	0xbf81e534	-1.0148072
160	0xbf3cf768	-0.7381501
161	0xbe040eef	-0.12896322
162	0x3d75a23a	0.059969164
163	0xbf4636ae	-0.77427185
164	0xbf14c30c	-0.5811012
165	0xbf82f57f	-1.023117
166	0xbfa2c699	-1.2716857
167	0xbf3fa186	-0.7485584
168	0xbf2729d6	-0.6529821
169	0xbf53c985	-0.8272937
170	0xbef251a0	-0.473279
171	0xbf5ee1cc	-0.8706329
172	0xbf8a47ea	-1.0803196
173	0x3e7690a5	0.24078615
174	0xbf2211cd	-0.6330841
175	0xbf8ab3cc	-1.083612
176	0x3c81ff53	0.015868818
177	0xbf01e0ef	-0.50733846
178	0xbf368da2	-0.71309865
179	0xbf6d76e7	-0.92759556
180	0xbf9852b0	-1.1900234
181	0xbf381715	-0.7191022
182	0xbf9989b0	-1.1995144
183	0xbf077992	-0.52919877
184	0xbf16a8c2	-0.58851254
185	0xbf99f934	-1.2029176
186	0xbf5d534a	-0.86455214
187	0xbf2bb8b4	-0.6707871
188	0xbf443d37	-0.76655906
189	0xbf2e84ee	-0.68171585
190	0xbf63bf31	-0.8896361
191	0xbf487e02	-0.7831727
192	0x3d3efa12	0.046625204
193	0xbf4c402b	-0.7978541
194	0x3ec74eec	0.389274
195	0xbf8111cf	-1.008356
196	0xbf5c8695	-0.86142856
197	0xbf8860a7	-1.0654496
198	0xbf2db97e	-0.67861164
199	0xbfaea69c	-1.3644595
200	0xbf39ff1d	-0.72654897
201	0xbf987e2c	-1.1913505
202	0xbf2daad7	-0.67838806
203	0xbea138e8	-0.3148873
204	0xbf4b3713	-0.7938091
205	0xbf38919b	-0.72097176
206	0xbf60d600	-0.8782654
207	0xbf3b81b5	-0.7324479
208	0xbf09fbf0	-0.5390005
209	0xbf59cf2e	-0.85081756
210	0xbf84e00a	-1.0380871
211	0xbf543ca6	-0.8290504
212	0xbf3fb5db	-0.74886864
213	0xbf487e97	-0.7831816
214	0xbf17d344	-0.5930674
215	0xbf051f2b	-0.52000684
216	0xbf63e2a3	-0.89017695
217	0xbf8ec068	-1.1152468
218	0xbf26eb5c	-0.6520288
219	0xbf8a966c	-1.0827155
220	0xbf3abdb2	-0.729457
221	0xbf2bc02d	-0.6709011
222	0xbf403327	-0.7507805
223	0xbf05d969	-0.52284867
224	0xbf59877e	-0.8497237
225	0xbf314143	-0.69240206
226	0x3eaa219f	0.33228776
227	0xbf7afb26	-0.9803947
228	0xbf6c9e24	-0.92428803
229	0xbf14ce60	-0.58127403
230	0xbf632996	-0.8873533
231	0xbf50d46f	-0.8157415
232	0xbf83af06	-1.0287788
233	0xbf338cf2	-0.7013694
234	0xbe2afd16	-0.16698107
235	0xbe23ecb5	-0.16008265
236	0xbf2f4cef	-0.68476766
237	0xbf974ac7	-1.1819695
238	0xbf20220b	-0.62551945
239	0xbf01f2ec	-0.50761294
240	0xbf02a63b	-0.510349
241	0xbf8df76c	-1.1091132
242	0xbf3b3fcb	-0.73144215
243	0xbf18e509	-0.5972448
244	0xbe5456ff	-0.20736311
245	0xbf83797c	-1.0271449
246	0xbf53c741	-0.8272591
247	0xbf853e7a	-1.0409691
248	0xbf7eb3d8	-0.9949317
249	0xbf8f3732	-1.1188719
250	0xbf49e0c6	-0.788586
251	0x3e0679f2	0.13132456
252	0xbf43db75	-0.7650674
253	0xbf0d0f48	-0.5510144
254	0xbecfadf8	-0.40562415
255	0xbf544a19	-0.82925564

fc2.weight f4 [300, 404]
0	0xbc4e926b	-0.012608151
1	0xbd8f2024	-0.06988552
2	0xbd2a1218	-0.04152116
3	0x3c97b6db	0.01851981
4	0x3c864c4d	0.016393805
5	0xbda9b32f	-0.0828613
6	0xbdcc16c6	-0.09965281
7	0xbcfd7ed0	-0.030944258
8	0xba676de1	-0.0008828324
9	0xbd32e53b	-0.043675642
10	0xbd554dd4	-0.052076176
11	0xbd1f9e5c	-0.038969383
12	0xbd6cacf0	-0.057782114
13	0x3c56c9ae	0.013109608
14	0xbd686e70	-0.056745946
15	0xbd2856c2	-0.041098364
16	0xbd009484	-0.031391636
17	0xbbcce163	-0.006252454
18	0x3c36518e	0.011127843
19	0x3cf111f9	0.029427515
20	0xbd511a66	-0.051050566
21	0x3ccbcf92	0.02487925
22	0x3cc0fe62	0.0235588
23	0xba1ea4fd	-0.0006051807
24	0xbd69a2ba	-0.057039954
25	0xbdaebd7f	-0.08532237
26	0xbb7a892e	-0.0038228738
27	0xbcbcbf1d	-0.023040349
28	0xbd948438	-0.07251781
29	0xbd807cdc	-0.06273815
30	0xbdb9bbd2	-0.09069027
31	0xbd801a23	-0.06254985
32	0xbd5e9925	-0.05434527
33	0xbd4d0c2c	-0.050060436
34	0xba837def	-0.0010032038
35	0xbd093076	-0.03349348
36	0xbc7b183c	-0.015325602
37	0xbdf4755d	-0.11936448
38	0xbd9a67b7	-0.07539313
39	0xbd324351	-0.04352123
40	0x3c8db0f6	0.017296296
41	0x3c15bd9d	0.009139446
42	0xbd1b2a59	-0.037882183
43	0xbbac4d9c	-0.005258275
44	0x3cfd4b34	0.030919649
45	0x3ba3979d	0.004992439
46	0xbc59c020	-0.013290435
47	0x3c6a9fa0	0.014320284
48	0x3c8d9a1b	0.017285397
49	0xbc88d279	-0.016701924
50	0x3d1554e1	0.0364579
51	0xbdf4a285	-0.11945061
52	0xbd9aebd8	-0.07564515
53	0xbd9df44a	-0.0771261
54	0xbce09fb2	-0.027419899
55	0xbdc25b7b	-0.09490105
56	0x3c257388	0.010098346
57	0xbd6041a2	-0.054750092
58	0xbc5988a9	-0.013277211
59	0xbd224bb0	-0.039622962
60	0xbce9360a	-0.02846815
61	0xba57bd3f	-0.0008229799
62	0xbbceba83	-0.006308855
63	0xbca8379c	-0.02053433
64	0xbcb9d6ff	-0.022685526
65	0xbc81b508	-0.015833393
66	0xbd0bf96f	-0.034173425
67	0xbd59e43b	-0.053196173
68	0xbca8ee67	-0.020621492
69	0xbd3884a8	-0.045048386
70	0xbc6d9004	-0.014499668
71	0xbcbf5a57	-0.023358507
72	0xbd4ba5b7	-0.049718585
73	0x3c9fc1a2	0.019501511
74	0x3c82bc14	0.015958823
75	0xbd28e1eb	-0.041231077
76	0xbb529416	-0.0032131723
77	0xbd8f8efe	-0.070096955
78	0xbd5a98f8	-0.05336854
79	0xbdb9f27d	-0.09079454
80	0xbd973fc0	-0.07385206
81	0x3caebf67	0.021331502
82	0xbce7ae2e	-0.028281298
83	0x3c80969d	0.015696818
84	0xbd3806a1	-0.044928197
85	0xbbfa1330	-0.007631682
86	0xbbb84143	-0.005623014
87	0xbd9a2722	-0.07526995
88	0x3d196937	0.037453856
89	0x3c3a8be2	0.01138589
90	0x3c46213c	0.012092885
91	0xbd085b02	-0.033289917
92	0xbd95571d	-0.07292006
93	0x3c7b1039	0.015323692
94	0x3b9bb8aa	0.0047522383
95	0xbd1ef99f	-0.038812276
96	0x3cb4874d	0.022037173
97	0x3b1666ad	0.0022949383
98	0xbb9675fd	-0.004591702
99	0xbcea37ea	-0.028591115
100	0x3cd8b56e	0.0264537
101	0x3c03bd05	0.008040671
102	0x3d0cc06f	0.034363206
103	0xbde3796a	-0.11107142
104	0xbd7e3ebb	-0.062071543
105	0xbd5a1132	-0.053239055
106	0xbd985fd1	-0.074401505
107	0xbc06b265	-0.0082212435
108	0x3ccaef25	0.024772236
109	0x3cae7f3d	0.021300906
110	0x3c6628c9	0.01404781
111	0xbd33671e	-0.043799512
112	0xbd53489a	-0.05158291
113	0xbd4ed3e5	-0.050495047
114	0xbd9613a2	-0.073279634
115	0xbc9bcf70	-0.019019812
116	0xbd834a94	-0.06410709
117	0x3bf85308	0.0075782575
118	0xbd6bf1c4	-0.057603613
119	0xbd848cf1	-0.06472195
120	0x3b6756be	0.0035299505
121	0x3ce4ceed	0.027930701
122	0x3cc39e19	0.023879098
123	0xbd3853df	-0.04500186
124	0xbc8eefd8	-0.01744835
125	0xbd54054f	-0.051762875
126	0x3cc2af6b	0.023765286
127	0xbd84f356	-0.06491725
128	0x3b18cbdf	0.0023314876
129	0xbbed0457	-0.0072331834
130	0xbcbc9469	-0.023019986
131	0xbcb44d19	-0.02200942
132	0xbaf80353	-0.0018921889
133	0xbbf6d463	-0.0075326427
134	0xbd812f6a	-0.06307872
135	0x3bcf7178	0.006330665
136	0xbbe9c1cb	-0.0071336976
137	0xbd89a82c	-0.06721529
138	0xbd8a6395	-0.06757275
139	0xbb763329	-0.0037567115
140	0x3d476ade	0.0486859
141	0xbd8de9dc	-0.06929371
142	0x3d292af0	0.041300714
143	0xbd4ec595	-0.050481398
144	0x3d0c1773	0.03420205
145	0xbc8ffe95	-0.017577449
146	0x3c1ad60d	0.009450448
147	0xbde01826	-0.10942106
148	0xbd780cd9	-0.060559127
149	0xbd0cb0ac	-0.034348175
150	0xbc08b9e4	-0.008345101
151	0xbd2dab89	-0.042399917
152	0xbd0d5b81	-0.034511093
153	0xbd129e69	-0.035795603
154	0xbcc0374c	-0.023463868
155	0xbcbf577a	-0.023357142
156	0xbd868c69	-0.0656975
157	0xbcc24ef0	-0.023719281
158	0xbcc1a8ca	-0.023640055
159	0xbd3a8d1a	-0.04554472
160	0xbd8fea14	-0.07027069
161	0xbc36e9c2	-0.011164131
162	0x3c365e36	0.01113086
163	0x3cdecc99	0.02719717
164	0xbd185516	-0.03719052
165	0xbcccee3c	-0.025015943
166	0x3d26ec40	0.04075265
167	0xbdc0ee07	-0.094204
168	0x3cfe84e4	0.031069227
169	0xbd87a6f2	-0.06623639
170	0xbcdbc2f2	-0.026826356
171	0x3bf7ee1a	0.0075662257
172	0xbd63df6b	-0.05563299
173	0xbd51a402	-0.0511818
174	0xbda34ec5	-0.079740085
175	0xbda6d331	-0.0814575
176	0xbd784fde	-0.060623042
177	0xbd42825f	-0.047487613
178	0xbcec6238	-0.028855428
179	0xbb67a495	-0.0035345901
180	0x3d1ccbc4	0.038280264
181	0x3c6528fd	0.013986823
182	0x3c16d3e6	0.009205794
183	0x3c4c274c	0.012460541
184	0xbcdc5ae9	-0.026898818
185	0xbd95617b	-0.072939835
186	0xbce75978	-0.028240904
187	0xbd442df9	-0.047895405
188	0x39e5e9c0	0.0004385244
189	0xbd825900	-0.06364632
190	0xbd0c2e8d	-0.03422408
191	0xbd9120d2	-0.07086338
192	0xbd673afa	-0.05645273
193	0xbd0278bb	-0.03185342
194	0xbda43af7	-0.08019059
195	0xbd385d27	-0.045010712
196	0xbcefa759	-0.029254602
197	0xbba7eee3	-0.005124913
198	0xbc45a53a	-0.012063319
199	0x3d26d8a8	0.040733963
200	0x3d291525	0.04127993
201	0x3b9e923d	0.0048392103
202	0x3c5ec8f6	0.0135977175
203	0x3cda1aa9	0.02662404
204	0xbd1e2ac3	-0.038615
205	0xbc0d63bc	-0.008629736
206	0x3ac9df65	0.001540166
207	0xbbaecd4b	-0.0053345314
208	0xbd0c12cf	-0.034197625
209	0xbd20466e	-0.039129667
210	0x3c506af3	0.012720811
211	0xbd0f23e6	-0.034946345
212	0xbd5bbcfe	-0.053647034
213	0xbd18a313	-0.037264895
214	0xbd764e56	-0.0601333
215	0xbd3dd8db	-0.046349388
216	0xbd3cb569	-0.046071444
217	0xbd85e290	-0.06537354
218	0xbd87911f	-0.066194765
219	0x3b2c29f4	0.0026270123
220	0x3ab8848f	0.0014077591
221	0xbd684fcd	-0.05671673
222	0xbd87b097	-0.06625479
223	0xbd777fa1	-0.06042445
224	0xbd05c6a6	-0.03266015
225	0xbd575e4f	-0.052580174
226	0xbd82b9f4	-0.06383124
227	0xbd65a9cb	-0.05607013
228	0xbc8f574f	-0.017497687
229	0xbd4f31ba	-0.050584532
230	0xbd2e9ca5	-0.042629857
231	0xbb588cbc	-0.0033042869
232	0xbc255476	-0.010090938
233	0xbd2da0d6	-0.042389713
234	0xbe007ac0	-0.12546825
235	0xbc53f368	-0.012936451
236	0x3cac6549	0.02104439
237	0xbd2f3d7f	-0.042783257
238	0xbd6efd4c	-0.05834703
239	0x3bf270b5	0.0073986896
240	0xbc423b1b	-0.011854912
241	0xbc65436e	-0.013993127
242	0x3cdf1db6	0.027235847
243	0x3b85ab52	0.004079261
244	0x3c199669	0.0093742395
245	0x3c20ffc8	0.009826608
246	0x3cf90a42	0.0304004
247	0xbd6fbbc7	-0.058528688
248	0xbd94eeae	-0.07272087
249	0x3c42fb26	0.011900699
250	0x3d00947a	0.0313916
251	0x3cb0c68e	0.021579053
252	0xbd11fef0	-0.035643518
253	0x3b72a80d	0.0037026436
254	0xbcaed7cb	-0.021343132
255	0xbd14cfc4	-0.036330953

fc2.bias f4 [300]
0	0xbd57226f	-0.052523073
1	0xbd9b54b9	-0.07584519
2	0x3c79977a	0.015233869
3	0x3bf79840	0.0075559914
4	0xbd57b96f	-0.052667078
5	0x3f7c55a7	0.98568195
6	0x3ada39f4	0.0016649351
7	0xbdac379e	-0.08409046
8	0xbdcff52b	-0.10154184
9	0x3b7af025	0.003829011
10	0xbd9ba807	-0.07600408
11	0xbd82768f	-0.063702695
12	0xbce58128	-0.028015688
13	0xbc8d53d5	-0.017251888
14	0xbded71bc	-0.11593959
15	0xbd6f378c	-0.058402583
16	0x3cadc33a	0.021211255
17	0xbd5b80d0	-0.053589642
18	0xbd876491	-0.066109784
19	0xbd70a494	-0.058750704
20	0xbd2450f8	-0.04011628
21	0xbde107db	-0.109878264
22	0xbd8ac011	-0.06774915
23	0xbd3d360d	-0.046194125
24	0x3c88ae68	0.016684726
25	0xbd1f2089	-0.038849387
26	0xbda1b979	-0.07896704
27	0xbda0ee96	-0.07858007
28	0xbda78753	-0.08180108
29	0xbdb23781	-0.08701993
30	0xbdad8a76	-0.08473675
31	0xbd7a7a82	-0.06115199
32	0xbd9f518c	-0.07779226
33	0xbdcdd97f	-0.1005125
34	0xbd2116f8	-0.039328545
35	0x3b445238	0.0029956233
36	0xbd9b7752	-0.07591118
37	0xbd2d3845	-0.04228999
38	0xbd4d2f6b	-0.05009405
39	0xb9e8c03a	-0.00044393708
40	0xbd776863	-0.060402285
41	0xbd112378	-0.035434216
42	0x3f6dc84a	0.9288374
43	0xbd56d0a0	-0.052445054
44	0x3edfb40f	0.4369206
45	0xbcaef308	-0.02135612
46	0x3ed3c7d5	0.41363397
47	0xbc70ff98	-0.014709376
48	0xbd3c51b3	-0.045976352
49	0xbd5e8f0e	-0.054335646
50	0x3f1e16e0	0.61753654
51	0xbd19e23d	-0.037569273
52	0xbd6559df	-0.05599391
53	0xbcad5e6b	-0.021163186
54	0xbdacf24a	-0.084446505
55	0xbd1c59e6	-0.03817167
56	0xbc72d0b3	-0.014820266
57	0xbd4df2fe	-0.050280564
58	0xbd196b0d	-0.037455607
59	0xbd1af5e3	-0.037832152
60	0xbd74dbe7	-0.059780028
61	0xbd2aa22b	-0.04165856
62	0xbb5f0b20	-0.003403373
63	0xbd88153b	-0.066446744
64	0xbd873237	-0.066013746
65	0xbd9ff0e0	-0.07809615
66	0xbd774ab7	-0.060373988
67	0xbd299e53	-0.041410755
68	0xbd3ae601	-0.045629505
69	0xbbcf3e3c	-0.0063245576
70	0xbd8f74d6	-0.070047066
71	0xbce561c3	-0.028000718
72	0xbd5b404e	-0.053528123
73	0x3cb13a2b	0.021634182
74	0xbd284afb	-0.041087132
75	0xbd5fdc91	-0.054653708
76	0x3c8c7e76	0.017150145
77	0xbd86cfaf	-0.06582581
78	0xbdb2f620	-0.08738351
79	0x3dd707fe	0.10499571
80	0xbdaebefc	-0.08532521
81	0xbd14a0eb	-0.036286276
82	0xbd896725	-0.067091264
83	0xbda56d0e	-0.08077441
84	0xbecd081f	-0.40045258
85	0xbd942ccd	-0.072351076
86	0xbd99a4d6	-0.07502143
87	0xbd89f5b2	-0.06736316
88	0x3f596f29	0.8493524
89	0xbd7551b9	-0.05989239
90	0x3c8e5a08	0.017376915
91	0xbdb51e2c	-0.088436455
92	0xbd88ced4	-0.06680074
93	0xbd7d1e2e	-0.06179636
94	0xbd9b40fb	-0.075807534
95	0xbd93a832	-0.07209815
96	0x3bc2a8df	0.005940541
97	0xbd6c2c41	-0.05765939
98	0xbd13332c	-0.035937473
99	0x3bada669	0.0052993787
100	0xbd8b3db1	-0.06798876
101	0xbcb2123a	-0.021737207
102	0xbd89f85d	-0.06736825
103	0xbdd1c34f	-0.1024233
104	0xbdf96a37	-0.12178462
105	0xbd2d2d7f	-0.042279717
106	0xbcb35a54	-0.021893658
107	0xbd6eb22b	-0.058275383
108	0xbd81c56e	-0.06336485
109	0xbdab8320	-0.083746195
110	0xbc5296c6	-0.01285333
111	0xbd1ce334	-0.038302615
112	0xbc540664	-0.012940977
113	0x3cb2eecf	0.021842388
114	0xbd5c75c1	-0.053823236
115	0x3d32386c	0.04351084
116	0xbd9cc106	-0.07654004
117	0xbd25df8a	-0.040496387
118	0xbc69a612	-0.014260786
119	0xbcf96735	-0.03044472
120	0xbdacfdfa	-0.0844688
121	0xbd9bb70c	-0.07603273
122	0xbd4d4408	-0.050113708
123	0xbda54a73	-0.08070841
124	0xbcac4f56	-0.021033924
125	0xbdd45ea0	-0.10369611
126	0xbd8cae85	-0.068692245
127	0xbd0be5d6	-0.034154736
128	0x3cd7bbd6	0.026334684
129	0xbd7ad5b4	-0.06123896
130	0xbd9a0f49	-0.07522447
131	0x3bfc9099	0.007707667
132	0x3f170d25	0.5900443
133	0xbdbfa5a5	-0.09357766
134	0xbd932207	-0.071842246
135	0xbc9b8b1c	-0.018987231
136	0xbcea912d	-0.028633678
137	0xbd70b1a2	-0.058763154
138	0x3a9ad745	0.0011813423
139	0xbda47181	-0.08029462
140	0xbdacd0da	-0.08438273
141	0xbd373dbf	-0.04473662
142	0xbc011a7a	-0.007879848
143	0xbd661075	-0.05616804
144	0xbd5a8bdc	-0.053356037
145	0xbd16a054	-0.036773995
146	0xbd855628	-0.065105736
147	0xbb807564	-0.003920244
148	0xbbdf45b2	-0.0068137283
149	0xbc3548ae	-0.0110646915
150	0xbe34d14a	-0.17657962
151	0x3cc18e27	0.023627354
152	0x3f271527	0.6526665
153	0xbd256b8d	-0.04038577
154	0xbd31dd76	-0.043424092
155	0xbd752ba5	-0.059856076
156	0xbd4ba0b4	-0.049713805
157	0xbd6bcea2	-0.057570107
158	0x3bb9a0b6	0.00566491
159	0xbd6a7f3b	-0.057250243
160	0xbdb65f80	-0.08904934
161	0xbda90c64	-0.082543164
162	0xbd94c1bf	-0.07263517
163	0xbd04d797	-0.032432165
164	0xbd88b985	-0.0667601
165	0xbd65e2a3	-0.05612434
166	0x39a1d8f4	0.00030869956
167	0xbd0f4170	-0.034974515
168	0xbc110c4e	-0.008853031
169	0xbcb28fba	-0.02179705
170	0xbd199fd0	-0.037505925
171	0xbd690bea	-0.056896128
172	0xbd1294f0	-0.03578657
173	0x3ef34714	0.47515166
174	0xbcc35ad2	-0.023847017
175	0xbd635c1b	-0.05550776
176	0xbd5e8035	-0.054321487
177	0xbcb9dd3e	-0.022688504
178	0xbd4fc6e2	-0.05072678
179	0xbd73d14e	-0.05952578
180	0xbdb52bc7	-0.088462405
181	0xbdb83cf1	-0.08995999
182	0xbc6e47a7	-0.01454345
183	0x3c4d2fc3	0.012523594
184	0xbdb503e8	-0.08838636
185	0xbd1134bb	-0.03545068
186	0xbd450fc3	-0.048110735
187	0xbdb1cc9f	-0.086816065
188	0xbda4386c	-0.08018574
189	0xbd89afeb	-0.06723007
190	0x3dd3deee	0.10345255
191	0xbd105fec	-0.03524773
192	0xbd032121	-0.032014016
193	0xbc8c8798	-0.0171545
194	0xbd94fa2e	-0.072742805
195	0xbcc01dd5	-0.023451725
196	0xbdac6128	-0.084169686
197	0x3e53467a	0.20632353
198	0x3d12e537	0.035863128
199	0xbbceca86	-0.006310764
200	0x3c5b7cb6	0.013396433
201	0xbb212270	-0.0024587177
202	0x3a3d28fe	0.0007215886
203	0xbce7447a	-0.028230894
204	0xbcf0423f	-0.029328464
205	0xbd23a47d	-0.03995179
206	0x3d0a9731	0.033835594
207	0xbd7ae329	-0.061251793
208	0x3beca9b8	0.0072223805
209	0xbc8e8bda	-0.01740067
210	0x3eb989fd	0.3623809
211	0xb9f933e9	-0.00047531657
212	0xbd261ece	-0.04055672
213	0x3c6995bb	0.01425689
214	0xbd847096	-0.064667866
215	0xbdaf5837	-0.085617475
216	0xbda62530	-0.08112562
217	0x3db03785	0.086043395
218	0x3b6e175e	0.0036329846
219	0xbd9125ef	-0.070873134
220	0xbd6a47b4	-0.057197288
221	0xbdb52d2e	-0.08846508
222	0xbdbed961	-0.093188055
223	0xbce3f902	-0.027828697
224	0xbcfd720a	-0.030938167
225	0xbda8ba1c	-0.082386225
226	0xbd4b422c	-0.049623653
227	0xbdfe204d	-0.12408505
228	0xbdce4a6d	-0.10072789
229	0xbd5b14e5	-0.053486723
230	0xbdbbd731	-0.09171904
231	0xbd09afd1	-0.033614937
232	0xbd9ad828	-0.0756076
233	0xbc83c959	-0.016087221
234	0xbddd143a	-0.107948735
235	0xbcef3814	-0.029201545
236	0x3c93c5f2	0.018038724
237	0xbd207612	-0.0391751
238	0xbdad45d6	-0.08460586
239	0xbd0b1a8e	-0.03396087
240	0xbc6ddcf1	-0.014518009
241	0xbd2f65ff	-0.04282188
242	0xbd2bb21b	-0.0419179
243	0xbd254c63	-0.04035605
244	0x3f60167e	0.8753432
245	0xbbb6dc8c	-0.0055804905
246	0xbd2d5d82	-0.042325504
247	0xbd859696	-0.065228626
248	0xbd031dcb	-0.032010835
249	0xbd492909	-0.0491114
250	0xbe055e6a	-0.13024297
251	0xbd92d83b	-0.07170149
252	0xbda9273f	-0.08259439
253	0xbc0e67a6	-0.008691704
254	0xbceab086	-0.028648626
255	0xbe0f3d54	-0.13988239

fc3.weight f4 [1, 300]
0	0x3c3ab194	0.011394877
1	0xbc1288d8	-0.008943759
2	0xbba02e02	-0.004888297
3	0xba9c5888	-0.001192824
4	0xbcdaf180	-0.026726484
5	0x3cb95c2e	0.022626963
6	0xbb920d75	-0.0044571706
7	0xbb79fdd8	-0.0038145687
8	0x3abf04af	0.0014573539
9	0xbc62df47	-0.013847179
10	0x3c45e47f	0.0120784035
11	0xbae7c826	-0.001768355
12	0xbc62b92d	-0.013838095
13	0xbcbcace0	-0.023031652
14	0xb9da37fd	-0.00041621915
15	0xbc1cac68	-0.009562589
16	0x3b3b4536	0.0028575188
17	0xbc4d430f	-0.012528195
18	0x388af2dc	6.625589e-05
19	0x3c966429	0.018358307
20	0x3d001f99	0.031280134
21	0x3ca3e124	0.020004816
22	0x3c19652e	0.009362502
23	0x3c4fc551	0.012681321
24	0xbb4bfc99	-0.0031125902
25	0xbcf962d2	-0.030442629
26	0x3c843919	0.016140508
27	0xbcb92758	-0.022601768
28	0xbc2aeb43	-0.010432067
29	0xbcdff966	-0.027340602
30	0xbca307f3	-0.019901251
31	0x3cf49fda	0.02986138
32	0x3c372b20	0.011179715
33	0xbc8d4128	-0.017242983
34	0xbc9eb5d4	-0.019373812
35	0xbaa6f3b7	-0.0012737428
36	0xbcc01846	-0.023449074
37	0xbd024d06	-0.031811737
38	0xbbb9350e	-0.0056520766
39	0x3d3e0906	0.046395324
40	0xbb976191	-0.004619785
41	0xbcb05a20	-0.02152735
42	0x3c70bfd8	0.014694177
43	0xbc888744	-0.016666062
44	0x3c9049f6	0.017613392
45	0xbcee0446	-0.029054772
46	0x3c8fcc73	0.017553544
47	0xbcb157a7	-0.021648241
48	0xbc1ec6d3	-0.009690958
49	0x3b7cadb0	0.0038555674
50	0x3cd25035	0.025673011
51	0xbbe3e045	-0.0069542252
52	0xbc969d00	-0.01838541
53	0xbc023ae2	-0.007948609
54	0x3cadba55	0.021207014
55	0x3cd794ec	0.026316129
56	0xbceb2d2e	-0.028708067
57	0xbb8c7207	-0.004286054
58	0xbce300a5	-0.027710268
59	0x3cd9ec65	0.02660198
60	0xbac0469f	-0.0014669484
61	0xbc6beff6	-0.014400473
62	0x3cb0da80	0.021588564
63	0xbbe93974	-0.0071174446
64	0xbca0fda9	-0.019652205
65	0x3c713a09	0.014723309
66	0xbb9fa56e	-0.0048720157
67	0x3c027b7e	0.007964013
68	0x3d00584b	0.031334203
69	0xbacb05ac	-0.0015489361
70	0xbcf419b7	-0.029797418
71	0x3ccacddc	0.024756365
72	0x38e3d921	0.00010864647
73	0xbb002875	-0.0019555364
74	0x3c117846	0.008878773
75	0xbc964fc8	-0.01834859
76	0x3c829113	0.015938317
77	0xbb8e5a1f	-0.0043442394
78	0x3cbed50e	0.023294952
79	0xbd6d6922	-0.05796159
80	0x3c7a1f68	0.015266277
81	0xbbd96776	-0.006634648
82	0x3c3841f5	0.011246194
83	0x3c1faf1e	0.009746341
84	0xbccb7d60	-0.024840057
85	0x3c8111f6	0.015755635
86	0xbc30a61c	-0.010781791
87	0xbc0fb032	-0.008770036
88	0x3ce066a9	0.027392702
89	0x3c990feb	0.018684348
90	0xbc76c9bf	-0.015062748
91	0x3cf720f4	0.03016708
92	0x3cfbb9cb	0.030728241
93	0x3b75f171	0.0037527943
94	0xbcccf607	-0.025019659
95	0x3c55cb2e	0.01304893
96	0xbbc7ebe5	-0.006101119
97	0xbcbb68d7	-0.02287714
98	0xbcc0d360	-0.023538291
99	0xbb931fd2	-0.0044898773
100	0xbd12050c	-0.035649344
101	0xbb616ca5	-0.0034397033
102	0xbc04a983	-0.008097055
103	0x3cf1935b	0.02948921
104	0x3c9a7f60	0.018859565
105	0x3ca7cfe6	0.020484876
106	0x3ccc5aa6	0.024945568
107	0x3c98e67a	0.018664587
108	0xbcc50948	-0.024052277
109	0x3bc487e0	0.005997643
110	0x3cc82b11	0.024434598
111	0xbc7cf23b	-0.015438612
112	0xbc2a944d	-0.010411334
113	0x3cb07e76	0.021544676
114	0xbc4d6271	-0.012535677
115	0xbca82b4e	-0.020528462
116	0x3c498b6a	0.012301305
117	0x3b5a4ecc	0.0033311127
118	0xbcff1429	-0.031137543
119	0xbca85e0f	-0.020552663
120	0xbcf3d723	-0.029765671
121	0x3cf1119b	0.02942734
122	0x3bfaa960	0.0076495856
123	0xbc84fb9b	-0.016233256
124	0x3c494b34	0.012285996
125	0x3ccea3c5	0.025224576
126	0xbc9f504f	-0.019447474
127	0x3c45f9a1	0.012083442
128	0x3a4c9214	0.000780375
129	0x3ab73bad	0.0013979577
130	0xbbf3f7e9	-0.0074453247
131	0xbd008d6e	-0.031384878
132	0x3caf6c02	0.021413807
133	0xbcdae597	-0.026720805
134	0xbcada16c	-0.021195136
135	0xbc2b1de3	-0.010444137
136	0x3ce99324	0.028512545
137	0x3c957a34	0.018246748
138	0xbcaf4634	-0.02139578
139	0xbcd623e4	-0.02614016
140	0x3cf415d8	0.029795572
141	0x3baf45cc	0.0053488966
142	0xbba18cd1	-0.0049301167
143	0xbaeccbff	-0.0018066167
144	0xbcdd2b1b	-0.026998093
145	0xbb788db3	-0.0037926256
146	0x3c91330f	0.017724542
147	0xbb16ac47	-0.002299087
148	0x3c903ab7	0.017606122
149	0xbd011821	-0.03151715
150	0xbcba36aa	-0.022731144
151	0x3b43c1cc	0.002987015
152	0x3c6d21f6	0.014473429
153	0x3cfe3639	0.031031715
154	0x39afca0d	0.0003352914
155	0x3bea7dae	0.0071560955
156	0xbc54a100	-0.0129778385
157	0xbc38f5bb	-0.011289055
158	0x3cff066a	0.031130988
159	0xbbc9ade3	-0.006154762
160	0x3d00d405	0.031452198
161	0xbce3f89f	-0.027828513
162	0x3cc7ec11	0.024404557
163	0x3cfa7eb7	0.030578
164	0xb90d6dad	-0.00013487665
165	0xbd3f6663	-0.046728503
166	0xbc739642	-0.014867367
167	0xbcd09ccf	-0.025465397
168	0x3c2e2e59	0.010631167
169	0x3cb7a432	0.022417162
170	0xbcd4a872	-0.025959227
171	0x3d16ddc3	0.036832582
172	0xb9d97529	-0.00041476756
173	0x3ca082c6	0.019593608
174	0xbce8d9c0	-0.028424144
175	0xbb203e97	-0.002445137
176	0xbc60d071	-0.013721571
177	0x3be2a286	0.006916347
178	0xbc9892ec	-0.018624745
179	0xbb6112a9	-0.0034343398
180	0x3cf9f000	0.030509949
181	0xbca73a78	-0.020413622
182	0xbccf833f	-0.025331138
183	0xbb853efa	-0.0040663453
184	0x3c7b88d2	0.015352445
185	0xbc9e5664	-0.019328304
186	0xbba5c69d	-0.005059077
187	0x3c92b963	0.017910665
188	0xbcfbd220	-0.030739844
189	0x3cd5d847	0.026104106
190	0xbd2627a6	-0.040565155
191	0x3c82e5cc	0.015978716
192	0xbc354f74	-0.011066306
193	0xbcb8ee2c	-0.022574507
194	0x3c04256e	0.008065565
195	0x3ce229e4	0.027607866
196	0x3cfd3c17	0.030912442
197	0x3cc48841	0.023990752
198	0x3b9e1443	0.0048241927
199	0x3cd59573	0.02607224
200	0x3bfe6daa	0.007764538
201	0xbcce1759	-0.025157617
202	0x3bec0e95	0.0072038868
203	0x3ba39b8f	0.0049929093
204	0x3c6dc3e6	0.014512038
205	0xbc281842	-0.01025969
206	0x3b4979e4	0.0030742818
207	0xbc566c45	-0.013087337
208	0x3cd5227c	0.02601742
209	0xbc61ec35	-0.013789226
210	0x3ca0e0db	0.01963847
211	0x3c259a57	0.010107598
212	0xbb2cc49e	-0.002636231
213	0xbc1b6eaa	-0.009486834
214	0x3c16c6e7	0.009202695
215	0xbc21312c	-0.009838384
216	0xbc7cc7c1	-0.015428484
217	0xbcc9b925	-0.024624417
218	0xbc5b1ef9	-0.013374084
219	0x3b9ae57d	0.004727064
220	0x3c3a5abd	0.011374173
221	0x3c90ec74	0.017690875
222	0xbd04fbe5	-0.032466788
223	0x3bcffe7f	0.006347477
224	0x3c769d8d	0.0150522115
225	0x3d090735	0.03345414
226	0x3c5ef30f	0.013607754
227	0xbbca3899	-0.0061712977
228	0xbd01734e	-0.031604104
229	0xbcdb4b2c	-0.026769243
230	0x3d16bb4d	0.036799718
231	0x3cd4e53e	0.025988217
232	0xbcf02ac5	-0.02931727
233	0xbce0060e	-0.027346637
234	0x3b9db381	0.0048126583
235	0xbbb1a055	-0.0054207244
236	0x3a3133cd	0.0006759733
237	0x3b4f9e27	0.003167996
238	0xbceee5ba	-0.029162277
239	0x3cd17e96	0.025573056
240	0x3aab8627	0.0013086245
241	0x3a2ea6fe	0.0006662457
242	0xbc19cdb1	-0.00938742
243	0xbcd36c7b	-0.025808563
244	0x3d014a5c	0.031565055
245	0xbcea0b07	-0.028569711
246	0xbc0934f2	-0.00837444
247	0xbcd75a85	-0.02628828
248	0x3c0c385c	0.008558359
249	0xbcded949	-0.027203219
250	0xbc54188d	-0.0129453065
251	0x3cf4d4e8	0.029886678
252	0x3cf3c40d	0.02975657
253	0x3ca77782	0.020442728
254	0x3bcd5f78	0.0062674843
255	0x3cce79fd	0.025204653
