checkpoint_actor.pth (torch_old, 541483 bytes, 6 tensors)

fc1.weight f4 [400, 33]
00000000: ce71 dc3b f07e 1bbd 3008 2f3c a8ac 693c
00000010: 7970 b73b a7fa 953d 0cac 8f3d b434 babd
00000020: a011 66bd 9940 05bc a121 debb 4ccc cabd
00000030: c8cc 863d 8423 1bbd 0394 10bd f57c 493d
00000040: ecb8 27bd 1668 853b e88a b03d 75ff b8bd
00000050: 96c5 6aba d156 28bc e1b0 29bb fde1 d93d
00000060: 3c56 d63c 9c1b ee3c a30e 963d 17a3 85bc
00000070: 02e5 9fbd c3d1 abbc bddc 30bd d789 f0bc
00000080: de0e 4cbf f8f0 96bd 8f5b 14bd 1069 883d
00000090: f9f7 893d 5cf6 b6bc fa85 f7bb 7fcf 123c
000000a0: 6f10 86bd af2e ccbd 2b86 09bd 6038 2bbd
000000b0: b7a9 b43d ce2b 3bbc 832f c2bc c28a 863c
000000c0: 1ce0 07be cb9c 773c c827 323e 6633 683d
000000d0: f70f 353c b92d f0bc 12a6 963d ea32 193c
000000e0: 022c b1bb c5d4 b43d 77bb c6bc c762 913d
000000f0: d778 46bd 86ce 2d3d 3560 3bbd cb73 8c3d
00000100: 4e2a 10bd a15a f1be 2798 4f3e 3250 8fbc
00000110: 8194 21bd 10a9 b73d b82f 073e 5909 c13b
00000120: 3430 63bd 7722 62bd cc03 04be 8aa9 3a3c
00000130: 88c0 bd3c 564a 09bd 929a 8fbd 9bba d0bc
00000140: 669d bcbc 6115 b53d f0a1 9fbd c90a 233d
00000150: 4e4f 1f3c 8b02 3fbd e7c9 1abb ef34 1dbd
00000160: a525 8d3d 8941 8bbd 5853 64bd bf28 2a3d
00000170: 5fca 043c 9655 4c3d ff16 1a3c c3f1 c9bc
00000180: e8ea 63bb 49b0 053d 7628 2f3e d696 6d3d
00000190: c491 933c 9325 25bd ba83 7fbc e3dd 113d
000001a0: 9f44 0d3c da16 edbd fbd1 14bd 7335 583d
000001b0: 6ec5 87bc 773a 54bc 27cd b8bc a463 83bc
000001c0: fc49 a83d 3574 c9bc af53 1c3b db93 a93d
000001d0: f16a 05bd ac74 26bd 86a0 41bd e2bb ccbb
000001e0: 2a72 cfbc 3dc0 efbc 85dd 8bba 7f19 16bb
000001f0: bc79 8a3d be45 fbbd 16d6 55bd 3c5f a53d
00000200: d410 143c 98e4 ac3c a757 293d 2167 13bf
00000210: 6f8c 88bd c866 9b3d d558 eabd 62a3 94bc
00000220: 35ad 783d e35d 62bd b037 95bd 913a 90bb
00000230: 6bab 0a3e 3345 54bd 1a29 59bd e2dd 893d
00000240: 436f 123d 218e 96bd e97a ae3d bb27 273d
00000250: f717 6abc 01fe 22bd 7f19 bf3c bdcc 0dbe
00000260: 385c 98bc 93f2 b3bd d519 8c3d 741d e7bc
00000270: 0957 2c3d 46e8 e13d 9102 53bd 95dc 143e
00000280: 2ad1 0fbd c371 a0bc a690 83bd b276 c83c
00000290: 1ea3 8a3e f386 993d 1f7b 553d fe53 51bd
000002a0: ef4c 753b a3c9 f1bc bb10 f13d fae6 e7bb
000002b0: d547 223d d354 be3d dd28 f33d c7db bd3c
000002c0: a8eb 093d d8ba 4dbd 1103 923d 022d 4e3e
000002d0: f36f 893d eb60 bc3c aaea 5bbc a0c3 373d
000002e0: 1638 7d3d e0ee 583b 138b 83bd f5d6 b33d
000002f0: 0e0a c63d 8977 fc3c 38e0 753c cea3 5b3d
00000300: 8981 b93d 4344 c33b 23ca 243d 0f9c 20bc
00000310: fd16 f9bc 3d12 a9bc 8025 123c 14ca 0b3e
00000320: ea8d 263e cbd5 6fbd 6325 2c3d e4cf 593c
00000330: ab69 2f3d 6d04 763d 8602 83bd ba0f 6c3b
00000340: c500 ac3c faf9 47bc 5f9d 18bc 5a74 6fbd
00000350: 3a04 c9bc 9964 00be 21af cdbd 69b8 c4bc
00000360: a57f 04bd df28 4fbd 6aed 56bd c323 513b
00000370: c1d2 473d 99d6 babc ed1a 4a3d e61e 3cbd
00000380: 0b07 eabd f316 823d b351 55bd f3e5 1d3d
00000390: 9a20 c13a 74a5 743c 21ff 5f3e 1f6a 47bd
000003a0: 45a3 393e 2b81 063d 4fce ea3c 1347 543c
000003b0: 6fc5 d2bd 05cb bfbc 6e97 aa3b b898 d63d
000003c0: 2d7e ca3c 453e 383d 044d ad3c 9562 253d
000003d0: c90d 67bc 89e8 9bbc dfa7 e0bd bc82 16bd
000003e0: 2834 a33b f5df 08bc 8202 563d 7b03 53bb
000003f0: 0d4d 363d 016c 49ba 5b57 0c3e 2127 9a3d
0.0067274338 -0.037962854 0.010683104 0.014262356 0.0055981246 0.07323199 0.07015237 -0.090920836
-0.056169152 -0.008133077 -0.006778911 -0.09902248 0.06582028 -0.037875667 -0.035297405 0.049191434
-0.04094784 0.004071246 0.08620244 -0.090330996 -0.0008955834 -0.010274605 -0.0025892782 0.10638807
0.026164167 0.0290659 0.073270105 -0.016313119 -0.07807352 -0.020974046 -0.043179262 -0.029362602
-0.79710186 -0.0737018 -0.03622013 0.06660664 0.0673675 -0.02233427 -0.007553813 0.008960604
-0.06546103 -0.09969842 -0.03357522 -0.04180181 0.08821433 -0.011424018 -0.023704296 0.016423587
-0.13269085 0.015113066 0.17397988 0.056689642 0.01105117 -0.029318677 0.07355894 0.009350518
-0.0054068575 0.08829645 -0.024259312 0.070989184 -0.048455086 0.042433284 -0.045746047 0.06858023
-0.035196595 -0.47139457 0.20272885 -0.017494295 -0.039448265 0.08967793 0.13201797 0.005891007
-0.055465892 -0.05520865 -0.12892073 0.01139296 0.023163095 -0.033518158 -0.07011904 -0.025479605
-0.023024272 0.08841968 -0.07794559 0.039805207 0.009723498 -0.046633285 -0.0023618878 -0.03838056
0.06891946 -0.06799609 -0.055743545 0.041542765 0.00810489 0.04988631 0.009404897 -0.024651414
-0.0034777466 0.03263882 0.17105278 0.058005176 0.018013842 -0.040319037 -0.015595371 0.035612
0.008622318 -0.11576624 -0.036333065 0.05278535 -0.016573634 -0.012953392 -0.022558762 -0.016038723
0.082172364 -0.024591545 0.002385359 0.08280154 -0.03257269 -0.04063861 -0.047272228 -0.0062479833
-0.025322992 -0.029266471 -0.0010670876 -0.002290338 0.067615 -0.12269162 -0.05220612 0.08074805
0.009037215 0.021105096 0.041343357 -0.5757924 -0.066674106 0.07587963 -0.114427246 -0.018144313
0.060712058 -0.05526532 -0.07286012 -0.004401513 0.13541953 -0.051823806 -0.053017713 0.06731774
0.03575064 -0.07351328 0.08519537 0.040809374 -0.01428794 -0.03979302 0.023327587 -0.13847633
-0.01859866 -0.08786502 0.068408646 -0.028212287 0.04207519 0.11030631 -0.05151612 0.1453727
-0.035111584 -0.019585496 -0.06424074 0.02447066 0.27077574 0.07496443 0.05211937 -0.05110549
0.003742989 -0.029515093 0.11770769 -0.007077095 0.039619286 0.09293523 0.118730284 0.023176087
0.033672005 -0.050227016 0.07129491 0.20134357 0.06710806 0.022995433 -0.0134226475 0.044864297
0.061821066 0.0033101365 -0.06423011 0.08781234 0.096698865 0.030818718 0.015007071 0.053623013
0.0905791 0.005959065 0.040231835 -0.009802832 -0.03040647 -0.02063858 0.0089200735 0.13651305
0.16265073 -0.0585535 0.042027842 0.013294194 0.042825382 0.060062815 -0.06396966 0.0036020116
0.02099646 -0.012205595 -0.009314864 -0.05846057 -0.024538148 -0.12538375 -0.10043169 -0.024013715
-0.032348294 -0.050576087 -0.05247251 0.0031912185 0.048784975 -0.022807406 0.049342085 -0.045927905
-0.114271246 0.063520335 -0.052079868 0.038549375 0.0014734447 0.014932025 0.21874668 -0.04868519
0.18128689 0.032838028 0.028662829 0.012956399 -0.10291564 -0.023412237 0.00520604 0.104783475
0.024718368 0.04498126 0.021154888 0.04037722 -0.014102408 -0.01903178 -0.10969519 -0.03674577
0.0049805827 -0.008354177 0.052248485 -0.003219812 0.044507075 -0.00076836353 0.13705198 0.075269945

fc1.bias f4 [400]
00000000: 2115 203e f52a 4d3e e33c 9e3d c8ff 0c3e
00000010: 74f8 d0bb cacc ee3d 407c d53d 43d1 cfbd
00000020: d7bc 003e c848 74bd 5f65 773d 9317 923d
00000030: 508f afbc 1520 2abe 71e1 103e bea9 52bc
00000040: 6b52 cd3c 5962 48be ba4b 473c 8597 0f3e
00000050: c963 0bbe 576a 283e 893b 2a3e 931f e2bd
00000060: 8063 03be e651 e8bd c90f 95bc f029 c1bc
00000070: 6577 bebd 0e2e 54be 0a3c ecbd 0e4d 703d
00000080: 66b6 4b3e 10ac b63c 3820 fa3d 563b 8fbd
00000090: bea5 313c 45d3 58be fec2 c93d 324e dabd
000000a0: f67a d8bd d35e 56be 8078 463d fc2b 4ebe
000000b0: 52b0 b0bd 1259 43be fd00 73bd 9339 723d
000000c0: 0032 bc3d ce9d 16be 9ce9 16be 37d9 863c
000000d0: a6e8 5ebd 77ed 35be f63a 0ebe cace a73d
000000e0: 4ecd ec3d d20b a13d 3d92 66bd 6b04 983d
000000f0: 22ee 5cbd 40cc 9dbc ec09 9bbc 5a0b 46bd
00000100: 8e6a 42be bbf4 323d ea92 75be 43c5 d6bc
00000110: bd23 c1bd 7c07 5b3c 8e79 17be 9d56 d93c
00000120: 6e8b bfbd e60d 04be ecc0 0a3c 6b83 47be
00000130: 2336 413d eb2c 30be a2b1 27be 345c 26be
00000140: b268 e2bd 2c1e ba3d 1483 2ebe 210f 6a3b
00000150: 1a20 97bd 4c48 6dbe 7863 6e3c a140 f13d
00000160: f516 23be 2326 64be f17b 063e 726a 383e
00000170: 5021 743d 7a8d c8bd e19e 37be df34 123c
00000180: d241 803d d12d 7fbe 9518 75bd 88bd 38be
00000190: 78ef ffbd 2bb7 6b3d 637c 96bd 808d 033e
000001a0: 403f 69bb 62fc 70bc 8f46 403e eb45 db3d
000001b0: 3054 2cbe 7eb6 1abe 8367 ad3d dea6 93bc
000001c0: db62 223d 4d79 44be 2e50 c83b cadf 01be
000001d0: 976e 38be acaf 2a3c 4224 cf3d 678b ed3d
000001e0: c1ed 833d e243 3fbe 79ba 4839 eeaa c13d
000001f0: f4c7 0abe 9233 b63d d6e8 203e 1a6d 3c3e
00000200: 08de d2bd 3396 c23d 8e65 363d 2d1e f8bb
00000210: d85c ca3d cdd4 edbd feaf 5cbd 002f 28bd
00000220: 5cbb 34be 2b59 01be a100 68be a399 56be
00000230: 0a1a 96bd 662f b53d 0aa4 76be e9ec 813d
00000240: ebdd 2abd e438 41be 5aa8 213e 1780 b93d
00000250: 2610 36be cfd4 ba3d 690d 0abe f00b 9e3d
00000260: 749b 5bbb 4e4f bfbd 501e 93bd 1ad2 a33d
00000270: bd05 2fbe 210c b3bd a2fb 733d 6471 903d
00000280: cdc7 033e 3bb1 883d 8a92 19bd 9abb f0bd
00000290: 1065 203e b01f 90bd baf4 ecbd ff55 d8bd
000002a0: 0f45 34be c4e0 bd3c 791b 963d 0a21 fa3d
000002b0: fb83 333d baf5 81be a07c eb3b b051 82be
000002c0: 2070 acbd 3ca8 983d d9d2 053d a740 233d
000002d0: 81b3 b5bd 0021 07be 767b 83bd b022 5a3d
000002e0: 2a95 a6bc 8a88 3cbe e424 153c fba4 9dbc
000002f0: 9a39 c0bd 6453 323c cba1 053c bb1c 8abd
00000300: fccc 36bb 94a8 cbbd 990c 96bd 0bc5 90bd
00000310: 739b 47be 2464 28be fcea b5bc bced 3d3c
00000320: de5b d6bd 13b8 84bd 6b52 d4ba bb76 013d
00000330: 0f58 2bbb fd1a a7bd bafc 8cbd 28f7 fdbd
00000340: b3ff 8abd bd35 26be ddca 58bd ddc3 22be
00000350: 56af 5bbe 3279 953d 2e14 9abd 2f52 82bd
00000360: e2c8 213e 33eb 61ba f2aa c0bc 7a17 483e
00000370: a3d4 253d 2870 53be e029 863d 1b1e 2abd
00000380: 6ea9 8ebd ecc2 e33d 5b79 343e fffa 49be
00000390: 0170 c5bd 7cd2 cfbd 8981 15be 8bc4 39be
000003a0: 78f0 3dbe ba39 2b3d f114 7a3d e323 483e
000003b0: de7b 2e3e a8f5 f2bd 4853 2d3c 7fc4 0dbe
000003c0: 1c70 413e 0cb6 afbd 67e3 34bd 7a56 1dbe
000003d0: 2b74 8b3d afa1 0bbc 03c3 093b afa8 0abe
000003e0: aa63 42bd 04a4 5abd e117 ff3d a614 543c
000003f0: bdf0 cd3d 3734 bfbd 32da 16be c657 903d
0.1563306 0.20035918 0.07726457 0.13769448 -0.006377274 0.11660154 0.104240894 -0.101473354
0.12572037 -0.059639722 0.06039941 0.07133403 -0.021430641 -0.16613801 0.14148499 -0.0128578525
0.025063714 -0.19568767 0.012164051 0.14022644 -0.13612284 0.16446815 0.16624273 -0.110411786
-0.12830925 -0.11343746 -0.018196004 -0.023579568 -0.093001164 -0.20720693 -0.11534889 0.058667235
0.19893798 0.022298843 0.122131765 -0.06993739 0.010842739 -0.21174343 0.09851645 -0.10659446
-0.10570328 -0.2093461 0.04845476 -0.20133966 -0.086273804 -0.19076946 -0.059327114 0.05913694
0.09189224 -0.14708635 -0.14737552 0.016460998 -0.05442109 -0.17766367 -0.1388968 0.08193739
0.11562596 0.07863583 -0.056291807 0.07422718 -0.05393804 -0.019262433 -0.01892563 -0.04835067
-0.1898596 0.043690424 -0.23981825 -0.026217109 -0.09430645 0.013368484 -0.14792463 0.026530558
-0.09352766 -0.12895927 0.008468848 -0.19483726 0.04717077 -0.17204635 -0.16376355 -0.1624611
-0.11055125 0.09087786 -0.1704219 0.0035714584 -0.0737917 -0.2317211 0.014550082 0.11779905
-0.15926726 -0.22280173 0.13133217 0.18009356 0.05960208 -0.097926095 -0.17931701 0.008923738
0.06262554 -0.24919821 -0.059837896 -0.1804105 -0.12496847 0.05754773 -0.07347944 0.12846947
-0.0035590678 -0.01470861 0.18776916 0.10706695 -0.1682899 -0.15108678 0.08467009 -0.018023904
0.039645057 -0.19186898 0.006113074 -0.12683025 -0.18010937 0.01041786 0.101143375 0.115988545
0.06441832 -0.18678239 0.00019142953 0.094564304 -0.13552839 0.08896555 0.1571382 0.18400994
-0.10296255 0.095013045 0.044530444 -0.0075719566 0.0988099 -0.11612854 -0.053878777 -0.041060448
-0.17649597 -0.12631671 -0.2265649 -0.20957045 -0.07329185 0.08846931 -0.24086013 0.06344015
-0.041715544 -0.18869358 0.15786877 0.09057634 -0.17779598 0.09122621 -0.13481678 0.07717121
-0.0033509405 -0.09341298 -0.07183516 0.07999058 -0.17092033 -0.08742548 0.059566148 0.070528775
0.12869187 0.06674429 -0.037493266 -0.11754532 0.15663552 -0.07037294 -0.115701154 -0.105632775
-0.17604469 0.023178466 0.07329459 0.12213333 0.04382704 -0.25382787 0.0071864873 -0.25452948
-0.08419824 0.07453963 0.032671783 0.03985658 -0.08872128 -0.13196182 -0.06420033 0.053255737
-0.020334799 -0.1841146 0.009103034 -0.019243708 -0.093859866 0.01088414 0.00815625 -0.06743761
-0.0027893176 -0.09944263 -0.073266216 -0.07068833 -0.19492893 -0.1644445 -0.022206776 0.011592325
-0.10466741 -0.06480422 -0.0016198879 0.03160737 -0.0026145016 -0.081594445 -0.06884141 -0.12400657
-0.06787052 -0.16231437 -0.05292784 -0.15895028 -0.21453604 0.07298507 -0.0752338 -0.063633315
0.15799287 -0.0008618116 -0.023519013 0.19540206 0.04048599 -0.20648253 0.06550956 -0.041532617
-0.0696591 0.11121163 0.17624418 -0.19724654 -0.09640504 -0.101475686 -0.14600195 -0.18141381
-0.18548763 0.0418031 0.061055128 0.1954494 0.17039439 -0.118632615 0.010578938 -0.13844489
0.18890423 -0.085796446 -0.04416218 -0.1536502 0.06809267 -0.008522435 0.0021020777 -0.1354091
-0.04745833 -0.053379074 0.124557264 0.012944376 0.10055683 -0.09336131 -0.14731672 0.070479915

fc2.weight f4 [300, 400]
00000000: 1e55 8cbc 1a21 cfbd 2272 673c 09f3 f4bb
00000010: 0bd1 403e f22a 053e 4fe2 b7bd 2069 503c
00000020: cecc a0b9 2ac8 d2bd 84b9 293d 6cfe 32bd
00000030: 92a2 57bd 65ee d63c dfe9 aabc 927f 4f3d
00000040: f2ee 29bd b543 e43c c728 32be 8447 9d3d
00000050: 315e 973d d6c0 023e f278 2e3d 6262 e4bc
00000060: 2134 263a c7a1 4f3c bd7c a0bd de21 cc3b
00000070: 8046 c13d bd99 83bc b637 7a3e 24b4 e83d
00000080: ad8e 3abe 4760 213d e739 233d eaf4 f23d
00000090: a32d 94be a3b1 b1bd 587b 0bbd 7cca 913c
000000a0: 2ec8 413d 8884 ec3d a864 863e fee4 823d
000000b0: 06d4 32bd 3388 9a3c 32c9 3f3d 39cf 643b
000000c0: f182 403e bd11 883d 59a8 febd 7128 893d
000000d0: 68b7 ad3d 9b19 4dbe b716 0dbb e143 bdbd
000000e0: 978d c3bc 5fb7 93bd d183 273d 82db fb3d
000000f0: b395 6bbd a065 e83d 3df5 d4bb bb0d 0c3d
00000100: 6671 b4bd 319c 06be e4de f23d bb79 09be
00000110: bc74 8c3d dea5 4f3d 8c9c 733d 8923 d9bc
00000120: 5c83 003e cc3a a0bc 48a2 a03d e99e 283e
00000130: 0b4a a2bd 2f64 aebd e4cd 153d 071e 05be
00000140: 3c18 73be e06c 933e 387f d13b b860 283d
00000150: cc90 71bd 05ea 8e3b dcff 563d f407 0f3d
00000160: 5c17 2ebd 2ace 10bd 5343 62be a269 e03d
00000170: b174 153e 214c 2bbe 087f 5c3d 59c4 98bd
00000180: a401 a4bc d9b9 0e3c cf35 3d3d d219 8a3d
00000190: f096 2abe 7419 933d 89b2 d73d 7069 5abe
000001a0: 3eba 17be 7867 fb3c ff59 e6bd 2273 7cbb
000001b0: 7aa0 b33d 17a7 49bd e59b 013d 8bb2 8c3e
000001c0: fbb5 85bc 78a9 723d b68c 063e 5b1b d63d
000001d0: 71b2 c9bc 55b0 8e3d ccab 573d e07c af3c
000001e0: c72a 16bd 7543 6a3d e318 5f3e 2d08 7c3c
000001f0: f0ad 103d dc5d eb3d 9499 1abd 3774 aabd
00000200: fb71 73bd 8c72 463e 8900 c0bd 64fd 273e
00000210: 8c15 913b eca0 3e3b 753a 323c b642 25be
00000220: 6304 c3bd 844f c4bc a0f1 ad3b c249 9c3d
00000230: 097a 3f3d 6b1e 42bd 99ed ecbc a6c5 573d
00000240: a633 7f3d 1c23 0a3e 3480 2dbe f619 65be
00000250: f23f 37bd 0cee c8bb 0ea2 b03c 2edc 02be
00000260: a00b f23b d25b dc3d c82e 913d c766 d43d
00000270: 7b9e 0a3e cea8 1dbe 4483 4dbd fe9a 9c3e
00000280: 7f27 8b3d 8207 5bbe 85d4 d03d 9700 1ebe
00000290: a385 4c3d c30a 3ebd 76dd 39be 605d 2dbd
000002a0: bc4b abbd b38e 263c 749e 5fbd 04b8 b0bd
000002b0: 2434 ddbd 639d 103e e2e3 743d 6042 20bd
000002c0: 881e d5bd 69f2 203d 6a33 afbd f431 fa3c
000002d0: 6f9c f7bd 84c5 ff3d 6fc0 06bd 4a3d b4bd
000002e0: f3cb 8ebe d897 c33c e4a5 903d 782e f63d
000002f0: cd15 103e d8f6 b5bc a621 e7bc c960 abbd
00000300: 738b f5bd c386 cfbd bd05 48bc 52fc 1dbe
00000310: 6196 5c3d 18ae 2e3e aa6e 3d3d ab2a 95bb
00000320: ee97 4f3d bf94 593e d591 a43c d637 9abd
00000330: fd70 ec3d aaf5 113d 749a c9bb 64fc 09bd
00000340: b155 b4bc 74d6 a8bc c54c 47be ab17 1bbd
00000350: fcda e03d c08c 02be f600 26bd bcb6 a2bd
00000360: 1dd0 edbc b75e 0ebe a19f 6abd 58f5 a03c
00000370: b0b6 74bc d102 db3b 1ff8 12bd 2216 ac3d
00000380: 5d44 adbd bdb1 e6bd 9bfe 70be 8fee dcbc
00000390: 9dc9 833d 00a2 0bbe 2497 dcbc 453a 6bbd
000003a0: 1c59 4fbd 6b58 1e3d c508 a9bd 386f d2bd
000003b0: 95ac 7abd 3505 5b3d 4642 223e 457c d43d
000003c0: e983 88be 5e44 0abd 54d6 8d3d 1f12 5d3d
000003d0: 4407 053c 6909 0ebe 6ba1 64bc 56fc aebd
000003e0: e979 93bd 18d4 ed3d 2eb4 21bd eaf7 15bb
000003f0: 2989 66be 10ca 73ba 1ba8 a8bd f304 8f3e
-0.01713043 -0.101137355 0.0141263325 -0.007475261 0.18829744 0.13004664 -0.08978712 0.012720376
-0.0003067017 -0.102920845 0.041436687 -0.043699667 -0.052645274 0.026236722 -0.020863472 0.05065877
-0.04148764 0.027864316 -0.17398368 0.07679656 0.073910125 0.12768874 0.04259581 -0.027878944
0.0006340165 0.012672848 -0.07836292 0.006229623 0.09437275 -0.016064519 0.24435315 0.11362484
-0.18218489 0.039398458 0.03985014 0.1186312 -0.28941068 -0.0867646 -0.034053177 0.017796747
0.047310047 0.11548716 0.2624867 0.06391333 -0.043659233 0.018863773 0.046822734 0.0034913553
0.1879995 0.06644008 -0.124344535 0.06697167 0.084822476 -0.20029299 -0.0021528432 -0.092414625
-0.023871226 -0.0721271 0.040897194 0.12297727 -0.05751581 0.113475084 -0.0064989612 0.034192782
-0.088106915 -0.1314552 0.11858919 -0.13425343 0.06858203 0.050695293 0.059475467 -0.026506202
0.1255011 -0.019559287 0.07843453 0.1646687 -0.07924279 -0.08515202 0.036573306 -0.12999736
-0.23739713 0.28794003 0.0063933395 0.041107863 -0.05897598 0.0043613934 0.0524901 0.034919694
-0.042502746 -0.035352863 -0.22095995 0.10957648 0.14595295 -0.1672826 0.053832084 -0.07459325
-0.020020314 0.008711302 0.046193894 0.06743206 -0.1665914 0.07182589 0.105321 -0.21329284
-0.1481714 0.030688986 -0.11247634 -0.0038520773 0.08770843 -0.049231615 0.031642813 0.27479967
-0.016322127 0.05924365 0.13139614 0.104544364 -0.02462122 0.069672264 0.052654073 0.02142185
-0.03666189 0.05719324 0.21786837 0.015382809 0.03532213 0.11492512 -0.03774412 -0.083229475
-0.059434872 0.19379634 -0.09375102 0.16405255 0.0044276174 0.0029087616 0.010878195 -0.1613873
-0.09522321 -0.023963697 0.005308345 0.07631256 0.04674724 -0.04739229 -0.02892189 0.052678727
0.062305115 0.13489956 -0.16943437 -0.22373185 -0.044738717 -0.006131893 0.021561649 -0.12779304
0.0073866397 0.10759701 0.07089001 0.10371166 0.13537018 -0.15396425 -0.050174013 0.30587
0.06794643 -0.21389583 0.10196785 -0.15429913 0.049932133 -0.046396982 -0.18150887 -0.042325377
-0.083640546 0.010165858 -0.054594472 -0.08628848 -0.10800961 0.14122538 0.05978764 -0.0391258
-0.10406214 0.03929368 -0.08554728 0.030541398 -0.12090384 0.12488845 -0.032898363 -0.088007525
-0.27889976 0.023876116 0.07062891 0.12020582 0.14070816 -0.02221243 -0.028214287 -0.0836807
-0.119894885 -0.10133126 -0.012208399 -0.15428284 0.05385435 0.17058599 0.046248116 -0.0045522056
0.050682 0.21248148 0.02008907 -0.07530181 0.11544988 0.035634674 -0.0061524455 -0.033687964
-0.022013517 -0.020610072 -0.19462879 -0.03786437 0.10979268 -0.12749004 -0.04052826 -0.0794501
-0.0290299 -0.13903318 -0.05728114 0.019648239 -0.014936134 0.0066836854 -0.035881158 0.08402659
-0.08460305 -0.1126437 -0.23534624 -0.026969222 0.06434939 -0.13636017 -0.026927538 -0.057428617
-0.05062209 0.03865854 -0.08253626 -0.102751195 -0.061199743 0.053471763 0.15845594 0.10375265
-0.2666314 -0.033756606 0.069256455 0.05397236 0.008119408 -0.13870777 -0.013954501 -0.08544223
-0.07200987 0.11612719 -0.039478473 -0.0022883364 -0.2251326 -0.0009299824 -0.082351886 0.27933463

fc2.bias f4 [300]
00000000: a657 3abd 697c 873d 9d11 743d f7d1 6fbd
00000010: 37c3 9a3c 7a69 b13c e145 e83c 2dba 53bc
00000020: 584d 56bc 78b6 0a3d 4413 75bd d73d bfbc
00000030: 8def 90bd d5d2 abbb 9e24 86bc 9414 703d
00000040: 8ae8 a33c 56a0 93bb ee83 893d 20b0 65bc
00000050: a5e5 93bc cded 9abc bdac b6bd c04e d6bc
00000060: cb55 07bd 3d7a 24bd 5330 6c3c 3e50 babc
00000070: cf06 dd3c b794 91bd 26cd b53c 8293 b83d
00000080: 2738 0a3d b585 593d 07a7 8abd 11e5 a8bd
00000090: edd3 2d3c 3f6d 0ebd cbe5 483b 3ddc 41bd
000000a0: f2d6 98bc 1b97 973d e27c f23a fa7c 2c3c
000000b0: 5860 423d dd15 f43c 395c b53c 50c6 44bd
000000c0: c8e6 b5bc 029e 97bb 38c7 ddbc e17b 24bc
000000d0: 88fb 873c f01a 4a3d 33c0 343c 9f3b 85bd
000000e0: e694 5b3d fa04 efbc bfd4 aebc 2f84 f6bc
000000f0: 9d07 e43b a005 40bc 7e3d 863c ccac 483d
00000100: 537d 7f3d 7895 16bd 7eda 363d eef4 063d
00000110: cf63 113c 382f eabc f4bd da3c a92e 73bd
00000120: a2b9 563c 8de2 753d fc27 69bc 96bb c5bc
00000130: 6fb1 2e3d c2d5 d9bc 0465 1cbc a403 60bd
00000140: 16af 753d aa5d 0bbd f63a 9f3b 5ad7 9bbd
00000150: 54c3 6c3c 68bd 8bbd 8896 c6bb 7e46 bebc
00000160: fbdd 3cbd 8f45 193c 6971 cabc d5bd 0a3d
00000170: 319e 5ebc 0836 c8bc 8717 103c 781c e2bc
00000180: c073 89bd d05a 89bd da5d 0dbd 1151 923d
00000190: 6534 87bd 6fc0 69bb e92b b33b 632a 4bbc
000001a0: 15cb 83bd 7e6a 6bbb 274a 043c b4fb a03d
000001b0: b76c 38bd 5ff1 523d a5a9 153b ffc8 f9bc
000001c0: 2694 9f3d 5c2a ea3c eea7 55bd 5e2a 4f3d
000001d0: 79ec 2c3d db8a 723a b581 f1bb c5d7 8eba
000001e0: 22bd ceb9 f34c 583d 1a38 9abc c3d4 6b3c
000001f0: 41de 5a3d d1d3 07bc f8e1 8cbd 374a 40bd
00000200: 3233 7dbc 2908 d03c 6427 ea3c 3280 e53d
00000210: ef27 693c cc0a ae3c a81f 08bd 301d 38bd
00000220: 3e24 bb3c 6786 24bd 24e2 803d 57c8 65bc
00000230: 7a9e 263d 8094 11bd 591f 9ebb e6ef e33b
00000240: 2dea 823c 42b0 9dba dc34 9dbd 65a0 99bd
00000250: 1fbb 863d 4a04 51bd 4e3a 0d3c 061c 2d3d
00000260: b789 983d dfe4 d33a 2d9b b5bc 6a0e 46bd
00000270: 1019 cc3c 2f50 c43b 3bc6 0e3d a98e 17bc
00000280: 6eb6 08bd daf3 8abc 4da0 883c 4574 1bbc
00000290: 7230 6ebd 713d 03bd a363 cebc df14 89bc
000002a0: a816 96bb 90e5 07bd dfd1 26bd 05db 13bd
000002b0: 0271 04bd 49f2 eebc ba49 e2bc 33e1 22bc
000002c0: 076d 5fbd 9fd4 953d cbd2 39bd 1cd9 d039
000002d0: 1619 33bc ccd2 82bc 8ef8 3ebd 3bc4 16bd
000002e0: 83ff 8bbb 7d13 8b39 ab68 82bd 45e3 ac3c
000002f0: 8220 b8bc 4f7a 883c 07bd e0bd 8dd3 b33d
00000300: 5df1 7dbc 2dab 9abc 7f1e bbbc e2f9 153d
00000310: c889 40ba c2e0 59bd 5a58 6a3c bc0b 37bd
00000320: 614d 0ebc 4425 46bd 1b7b 42bd 1509 933c
00000330: d6db c1bd ecba e73c 6f20 4b3d b964 e9bc
00000340: 4848 2abc f0a4 1c3d acb8 ef3c 1877 853c
00000350: c3cb 02be 9377 dabc c76f 8cbc ce64 39bd
00000360: 8d47 b53d 58bc 10bc c3a9 d33b 20d9 b13c
00000370: 8eca 86bd 40cb a7bd 997b 79bb 8859 f6bd
00000380: 6fb0 953c 21ca 5c3c 7a71 4d3d 6786 c4bc
00000390: a29d 943c 3cd6 b63c 354e 5d3d 8d5c 5d3d
000003a0: ff35 083d 1ef6 08bd da98 383d d897 80bd
000003b0: 577f fdbc 4ef1 e53c cd86 5c3b 3e8c febc
000003c0: 8acb 9abd 900d e8bb 944d 91bb e421 63bd
000003d0: 8c80 f53c 6de7 a6bd 16ab cd3c 5dad 8ebc
000003e0: 7a79 6abd b3e0 0b3d 1947 edbc 9a0a 353d
000003f0: fa02 ec3c d953 2c3d 2c0d 8a3d 113b 6e3d
-0.045493744 0.06615526 0.05958711 -0.058549847 0.018891914 0.02165674 0.028353633 -0.012922806
-0.013079964 0.033865422 -0.059832826 -0.023344917 -0.07076941 -0.005243639 -0.016374882 0.058613375
0.020008344 -0.0045051975 0.06714617 -0.014019042 -0.018053839 -0.01891222 -0.08919666 -0.026160598
-0.033040803 -0.040155638 0.014415818 -0.02274334 0.026980786 -0.07108443 0.022192549 0.0901251
0.033744957 0.05310603 -0.06770139 -0.08246816 0.010609609 -0.034772154 0.0030654545 -0.047329176
-0.018657181 0.07401868 0.0018500353 0.010527844 0.04745516 0.029795581 0.022138702 -0.048040688
-0.022204772 -0.0046269903 -0.027072534 -0.010039301 0.016599432 0.049342096 0.011032152 -0.065055124
0.053608797 -0.029177178 -0.02134168 -0.030092327 0.0069589154 -0.011720091 0.016386744 0.048992917
0.062375378 -0.03676364 0.044641964 0.032948427 0.008873894 -0.028586969 0.026701905 -0.05937067
0.013105782 0.06003051 -0.014230724 -0.0241373 0.042649683 -0.026591185 -0.009545568 -0.054690972
0.059981428 -0.034024872 0.0048593236 -0.076094344 0.014450867 -0.06823236 -0.006060425 -0.023226973
-0.046110135 0.009354963 -0.024712281 0.033872444 -0.01358752 -0.024439827 0.008794672 -0.027601466
-0.06711531 -0.06706774 -0.034513332 0.071443684 -0.0660179 -0.0035667678 0.005467881 -0.0124002425
-0.06435219 -0.0035921629 0.00807432 0.078605086 -0.045025554 0.05149972 0.0022836712 -0.03049135
0.07791929 0.028584652 -0.052162103 0.050577514 0.042217705 0.00092522585 -0.0073701986 -0.0010898045
-0.00039432297 0.05280776 -0.01882558 0.014393988 0.053434614 -0.008290247 -0.068790376 -0.046945777
-0.0154541 0.025394516 0.028583236 0.11206092 0.014230712 0.021245383 -0.033233315 -0.04494971
0.02284443 -0.04016724 0.06293133 -0.0140248155 0.04067848 -0.03554201 -0.0048255143 0.0069560884
0.015980804 -0.0012030678 -0.07676098 -0.07501296 0.06578659 -0.05102948 0.008619858 0.042263053
0.07448142 0.0016166231 -0.02216872 -0.04835359 0.024914294 0.005991004 0.034857016 -0.009250321
-0.033377104 -0.01696198 0.016678 -0.00948817 -0.05815167 -0.032041017 -0.025193995 -0.016733585
-0.0045803376 -0.033177912 -0.040727492 -0.036097545 -0.032334335 -0.029168265 -0.027623046 -0.009941387
-0.054547336 0.07315945 -0.045367043 0.0003983461 -0.010931274 -0.015969656 -0.04662376 -0.036808234
-0.0042724027 0.00026526666 -0.0636762 0.021104464 -0.022476438 0.016659884 -0.10973554 0.087805845
-0.01549944 -0.018880451 -0.02284169 0.03661526 -0.000734475 -0.05319286 0.014303291 -0.044688925
-0.008685441 -0.048375383 -0.047480684 0.017948667 -0.094657585 0.028287373 0.049591478 -0.028490411
-0.01039321 0.038243234 0.029262863 0.01629214 -0.12773041 -0.026668346 -0.017143143 -0.04526215
0.08851538 -0.008833967 0.006459446 0.021709979 -0.06581603 -0.08193064 -0.0038068055 -0.120287955
0.018272607 0.013475926 0.050157048 -0.02398987 0.018141571 0.022318952 0.054029662 0.05404334
0.03325462 -0.03343784 0.045067646 -0.06278962 -0.03094451 0.028069165 0.0033649683 -0.031072732
-0.07558353 -0.007081695 -0.004434297 -0.055452242 0.029968522 -0.0814961 0.025105994 -0.01741665
-0.057244755 0.034149837 -0.028964566 0.044199564 0.028810013 0.04207215 0.067407936 0.0581618

fc3.weight f4 [4, 300]
00000000: 46f9 9b3e 9af4 b6bc 3939 44be 1111 543e
00000010: 4908 573d b849 473e bb99 2bbe 9ded ccbc
00000020: c7dc 91be e69c 103e 9eb3 753c 4845 b8bc
00000030: 9f3f 03bf 9450 14be b592 8f3d 1172 3d3d
00000040: 9c1b b4be d08b 333d f482 26be cfab 0d3e
00000050: ef19 30be 6ac6 2abe 06c1 81be 42a9 6abd
00000060: e374 04be f668 133e fc37 e6bd fd59 18be
00000070: 5a3c 783d ac37 983e 837f 863e eecb 583e
00000080: 23f9 a1bd 2f04 753d 08f6 fc3d af81 5a3e
00000090: 26f9 c6bc 2c7e 8c3c 70b1 29be 6304 3abc
000000a0: 051e 0f3b f9ec dfbb 5aaf a1be 5c13 c1be
000000b0: 1a4f 813e 4a82 923e 04ee 81bc ca9f 03be
000000c0: 34c9 6bbe 1771 dc3d afe7 e2bb 0219 89bc
000000d0: dd5e e7be 779d 15bd ad77 7c3d 2fb1 153f
000000e0: 4e1e e4be ca46 acbd 8e26 933e f1ec cbbe
000000f0: 3fbe 92be c403 1a3e 0e75 5abe 5005 653d
00000100: 7f5c ee3d 90fc 913d 976a febd 4b69 093c
00000110: 4b5d 303e 008e 5e3c fad3 b0bd 52d3 883c
00000120: e665 043e d5f2 82be 7b7b 32bc 66ab c53d
00000130: b46c 20be 0be1 1b3e a595 093d cb6d ccbd
00000140: f9b4 313e 85cb 8b3e cdf8 06be 2a07 bb3c
00000150: bee7 d7bd fbd6 833e 1dd0 fabd 2be1 48bc
00000160: ef23 b6bd b95d f6be 4fe5 5f3d 8435 73be
00000170: 933e 873d e0cd 393e 0a77 cf3d 756f 85bc
00000180: f5f6 7a3e 2404 bcbe 7499 b73e b143 fdba
00000190: 283c 513e 9e6b 04bf 7904 683d 011b a7be
000001a0: 5275 b9be ad04 20be 1e14 9cbe 482c 9cbc
000001b0: 5580 93bd 5820 26bd 0bd5 01be e559 44be
000001c0: 02f7 1cbd 4b40 e13d 793c 713d 58d4 3fbf
000001d0: 59aa e73d 7a20 97bd 382c acbd 5dff c1bc
000001e0: bb72 5b3d 55d7 7e3e fa22 c5bb 86d0 5e3e
000001f0: 2f32 1bbd c069 753e 50fd 40be e52e 2cbd
00000200: c828 bebe 4fac 153d 2f4f 2dbe fe56 0e3d
00000210: 2bd2 51bd 4769 d6be 0219 8abe 62fe 25be
00000220: ebf9 5bbb ff84 dfbe fdbd e23b dec8 98be
00000230: 285b 893d a733 943d 2b11 333f 3dd3 b53c
00000240: c0e3 d5bc 84a6 ebbd 0a8e d03e cc93 e4be
00000250: 4812 933c 4314 b33c 0ac4 d9bd 9d47 1bbe
00000260: 2f38 a33e 4416 a73e 2477 05be 2166 413e
00000270: c87f 5cbe 61e4 b13d 17ec 4cbe 4977 573e
00000280: 8e85 bebc abdc 32be d767 bbbd 3158 c33d
00000290: b22d 60be 78f1 52be d0bf 13be 1de3 13be
000002a0: 5313 d5bd b0fe f8bc a826 f53d 6af9 763e
000002b0: e9fd 23bd 62e7 203e 988f 623d ea3c 04be
000002c0: 6ecb 27bc 1b41 293e 7c0c bb3c 5884 963d
000002d0: 8b4b aebe e38e debd 082e fc3d 8c25 a6be
000002e0: a615 f1bd 20b0 95be 90ee 823c 4fe1 71bb
000002f0: 0c03 08be 1427 e6bd 9224 6abd 1a4a be3d
00000300: e3e8 323e acab 603e 813f 493e 3a6f 76bd
00000310: 1f1e 91be 8b86 d53d dd9f 7dbe 3f7a 663c
00000320: 0dc6 3fbd 6a18 cfbe afa9 d5bd 2475 1e3d
00000330: 0b62 1abf 1a48 203e 2c6f 15bd 80a6 273e
00000340: a524 043b e8fc 643e ae98 463e 2812 363d
00000350: 0681 c03e 0ea3 e3bc ba56 583d 99ef dfbd
00000360: 9f3c 3dbe 1279 153e e07f 3ebd 1352 003d
00000370: fc4b 9e3d 73cf 8c3e 585d d73d cf2f 3fbe
00000380: b7c1 d73d 98cc 9dbc 29de 003e f184 253d
00000390: c781 a23d c6bc 10bf f81d d6be 7684 89be
000003a0: dbef adbe 6a78 e43d 8f8c 8ebe bfb5 03bd
000003b0: 1c89 62be 1073 233d 3a86 3abd 3c89 43bd
000003c0: 22a7 a83e 97eb 263d 5149 a1be 3743 503e
000003d0: 7965 363d 5182 603e 47ee dabe d21b 013d
000003e0: c8f3 febe e001 19bd e925 85bd 6c32 a2be
000003f0: bde1 a9be 2243 f83c b65e f03d 96bb 46be
0.30463618 -0.022333432 -0.19162454 0.20709635 0.052498136 0.19461715 -0.16757862 -0.025015647
-0.28488752 0.14122352 0.014996437 -0.022493973 -0.51268953 -0.14483863 0.07010404 0.04625136
-0.35177314 0.043834507 -0.16260892 0.13835071 -0.17197393 -0.16677251 -0.25342578 -0.057290323
-0.12935214 0.14395508 -0.11241147 -0.14878078 0.06060443 0.29729974 0.2626916 0.21171543
-0.07908847 0.059818443 0.12351614 0.21338533 -0.024288725 0.017150007 -0.16571593 -0.011353585
0.0021837961 -0.0068336693 -0.31579095 -0.37710083 0.25255662 0.28615028 -0.015860565 -0.12853923
-0.23025972 0.10763758 -0.0069245915 -0.016735557 -0.45189562 -0.036527123 0.06163757 0.58473486
-0.4455437 -0.084119394 0.28740352 -0.3982921 -0.2866077 0.15040499 -0.21333715 0.05591327
0.11638736 0.071282506 -0.12422674 0.00838692 0.17223088 0.01358366 -0.08634181 0.016702328
0.12929496 -0.2557589 -0.010893698 0.09651832 -0.15666467 0.15222566 0.033589978 -0.09981879
0.17354192 0.2730371 -0.13180847 0.022830565 -0.10542248 0.25749955 -0.12246726 -0.0122607155
-0.088935725 -0.4811838 0.054662045 -0.23750883 0.06603732 0.18144941 0.10130127 -0.016288498
0.24508269 -0.3672191 0.35859263 -0.0019322542 0.20433104 -0.5172671 0.05664489 -0.3263779
-0.3622232 -0.15626784 -0.30484098 -0.019064084 -0.07202212 -0.04055819 -0.12678926 -0.19174917
-0.038321503 0.10998591 0.05889556 -0.74933386 0.11311788 -0.07379241 -0.084068716 -0.023681337
0.053576212 0.2488683 -0.0060161324 0.21759233 -0.037889656 0.23966122 -0.18846631 -0.04203691
-0.3714049 0.03654128 -0.16924737 0.03475093 -0.051225822 -0.41877195 -0.26972204 -0.1621032
-0.003356571 -0.43656155 0.006919621 -0.2984075 0.0670684 0.072364144 0.6994807 0.022195453
-0.026109576 -0.1150637 0.40733367 -0.4464401 0.017953053 0.021860247 -0.106330946 -0.15164037
0.31878802 0.32634175 -0.1303373 0.18886615 -0.2153312 0.08686138 -0.20011936 0.21041597
-0.023257043 -0.1746699 -0.09150665 0.095383056 -0.21892431 -0.20599926 -0.1442864 -0.14442106
-0.104040764 -0.030394882 0.11970264 0.24118581 -0.04003707 0.15713266 0.055312723 -0.12913862
-0.0102413725 0.16528742 0.022833101 0.07349461 -0.3404201 -0.10867097 0.12313467 -0.3245052
-0.11771707 -0.29235935 0.015982896 -0.0036907976 -0.13282412 -0.11237922 -0.057163782 0.092914775
0.17471652 0.21940488 0.19653131 -0.060164668 -0.28343293 0.10426053 -0.24768014 0.014067232
-0.046819735 -0.40448314 -0.10432755 0.038685933 -0.6030585 0.15652505 -0.036482975 0.16372108
0.0020163443 0.22362101 0.1939418 0.04445091 0.37598437 -0.027787711 0.052817084 -0.109343715
-0.18480156 0.14596966 -0.04650867 0.031328272 0.077293366 0.2750202 0.10515851 -0.18670581
0.10534995 -0.019262597 0.12584747 0.040409986 0.07934909 -0.56538045 -0.4181974 -0.26858872
-0.33972058 0.1115578 -0.27841613 -0.03215575 -0.22122616 0.039904654 -0.045538165 -0.0477383
0.32940012 0.04075202 -0.31501248 0.2033814 0.044530366 0.21924712 -0.42759916 0.031520672
-0.49795365 -0.037355304 -0.065013714 -0.31679094 -0.33180037 0.030305449 0.11736815 -0.19407496

fc3.bias f4 [4]
00000000: e19f 2abd 5d31 c13c 1010 263d b684 903d
-0.04165638 0.023583109 0.040542662 0.070565626
